ActionEncoder_EffectDecoder_NLtoAV/best_encoder_parameters.pt (torch, 689111 bytes, 6 tensors)

conv.weight f4 [200, 6, 3, 3]
00000000: e761 8e34 fc85 6e3a e67d 0381 02ec af39
00000010: 7615 85b2 0aae 3e81 78e5 0a30 6ca9 1db6
00000020: 4540 8a80 3f4a 7200 86d1 f480 911f 6280
00000030: 9b64 2a2f 42e3 90b5 854d 0633 c82d bb00
00000040: 1fc3 8080 74bf a980 8e82 4b80 910d 7f80
00000050: 9317 8f80 3498 9a81 e518 0a9a 805b 8c39
00000060: a6f4 7680 ea1f 6499 62e8 362c 2383 adb6
00000070: cd03 0380 1b93 3f80 5584 fd21 8e90 dfb7
00000080: 3ede 1532 1e8f 0837 7bb5 f880 6af9 8213
00000090: fedd 2301 75ee 6d81 8628 6300 d801 f780
000000a0: 606c c180 ec40 2001 b000 2801 3016 3b81
000000b0: 5e2e 8701 6040 6e00 7262 1980 0cd2 d239
000000c0: 21c2 bf80 f438 3da6 21c4 37b6 519c 2800
000000d0: 6964 6e80 94f7 bbb8 b91c 7bbc 9725 9ebc
000000e0: 261a 2881 77cf 77bc cce0 77bc cee6 f1bb
000000f0: bec3 eebb 696b 7abc 484f d480 2743 7bbc
00000100: aeb8 5ab8 97b6 5ab8 2743 7bbc 451f 30bc
00000110: 99d0 ecb9 4743 7bbc 70d0 ecb9 a9d0 ecb9
00000120: 5231 be01 70d0 ecb9 70d0 ecb9 5c64 b701
00000130: 70d0 ecb9 70d0 ecb9 5c77 b781 62b7 5ab8
00000140: 3ab6 5ab8 04aa 8181 5d43 7bbc a1dd b4bc
00000150: 3fc1 b701 5d43 7bbc a1dd b4bc f04f 6981
00000160: c704 f2bb 6630 a0bc e04b 5d81 8a33 db00
00000170: 20d6 b300 fe87 4681 8a67 4d81 6716 6d81
00000180: 9a7c 7601 c044 e380 6e3e 7d01 d855 3081
00000190: aa8c 8481 775d f5bb fccc 4f01 7812 b701
000001a0: dce1 8801 905f 5280 50e9 fe80 8847 2401
000001b0: a834 0a3e 595b 2f3e 44ff 5ebe aec4 39bd
000001c0: b5c7 a8be 4c1d 8ebe 21f4 c83e 9828 09bd
000001d0: 8ba8 203c 65f1 25bd 3fc0 00bd 0742 c0bd
000001e0: d8de fb3c dbbe 443e 94dd b0be d86b 7f3e
000001f0: 8fcc a93d 1ee0 07bd e1a2 b73c 22ce 8cbd
00000200: 98e3 163e c6f3 a7be f33c 303e ae23 173e
00000210: f06f 2f3e eb25 073d b9e9 bd3e 95f7 1c3e
00000220: acb8 5c3c c03d 5fbe fa07 f63d 335a dfba
00000230: c520 f5bd 698e ab3e 02dc db3d 6f74 90bd
00000240: 1cef 8581 c466 3681 8be3 4601 8088 7980
00000250: 9338 0181 2f0e 2a81 41e2 8b81 1efc 3281
00000260: 7ad8 3981 1f81 f900 06a7 e2bd 3ee1 cdbe
00000270: 6192 0b80 d7f9 9ebe f53d c9be be0e 0281
00000280: ae10 0abd fb1e fabd 57f1 a8bd b935 10be
00000290: 7713 0d3f b02a bbbe a8c6 a7be ad52 fe3e
000002a0: 7a41 3abd 6e10 593d 4cb0 05bf b35d 2fbe
000002b0: 1a73 a33e 6f2b 163f 1d9b 133b 874b 8c3e
000002c0: e335 d83e 6bc7 28be 3da3 81bd 6cc3 09bf
000002d0: 89fe 503e 6b41 4f3d 9964 013f b760 42be
000002e0: d438 903d 7b19 e93e 5c76 b9bd 1a3f c53e
000002f0: cb80 c7be 40d5 4cbd 8745 afbe 467e 073f
00000300: a864 c4be f2b8 8bbe 8859 d43e 22dd 793c
00000310: 9e40 283e 7700 20bf 57da 7a01 33d3 8681
00000320: 7327 9381 5657 aa01 8c4b d980 c01d 8701
00000330: 6d5b 8601 83a6 8d81 783c 4f01 b6e1 a438
00000340: 8ec7 863c 332a a73e 3286 e03d 9b90 8d3d
00000350: 4973 633e 2377 33bd 6981 0d3d 0383 fd3b
00000360: a902 06bd 00c1 12be 9bf9 203d 5678 91bc
00000370: 71bf 013e ece0 b8bd b139 b2bc 6f6d 2cbd
00000380: 4412 193d 2365 d0bd 6ad0 d13d e18e 4dbe
00000390: b029 b7bd d40d 5abe f5e9 ddbc e0db 02bd
000003a0: 775f b1bd 76fe d6bd 81ed 84bd d06f 6fbe
000003b0: f9f7 e43c 2e37 67bd 444f 84bd b349 693d
000003c0: 5402 83bd 0146 58bc c597 8dbc 8bd5 1bbd
000003d0: e641 4bbe 5cb8 b9ba c34f cebd 34ee 1fbd
000003e0: 764f 0c3e d9c0 c1bd ee9d 01be 1054 813d
000003f0: a026 dd00 d6f0 7a01 4a2e 9f01 9b89 0100
2.6520794e-07 0.0009098945 -2.4151228e-38 0.0003355444 -1.5492997e-08 -3.5022355e-38 5.05302e-10 -2.349344e-06
-1.2696354e-38 1.0495881e-38 -2.2483024e-38 -9.011203e-39 1.5497152e-10 -1.0794977e-06 3.126981e-08 1.7189661e-38
-1.182494e-38 -1.5588879e-38 -6.934496e-39 -1.1667975e-38 -1.3140933e-38 -5.6789066e-38 -2.855784e-23 0.00026771054
-1.0924352e-38 -1.1793769e-23 2.5992754e-12 -5.171068e-06 -2.7687e-40 -5.838408e-39 1.7178975e-18 -2.6650985e-05
8.7234735e-09 8.139554e-06 -2.2840306e-38 3.3062555e-27 3.0097643e-38 -4.370111e-38 9.106251e-39 -2.2684029e-38
-1.7763128e-38 2.9433938e-38 3.085722e-38 -3.4362394e-38 4.96577e-38 1.0124998e-38 -2.331203e-39 0.00040210818
-1.761022e-38 -6.5649733e-16 -2.7383287e-06 3.729496e-39 -1.0137925e-38 -8.96297e-05 -0.015326672 -0.019305034
-3.0875487e-38 -0.015125147 -0.015129279 -0.0073822504 -0.007286518 -0.015284398 -1.9497566e-38 -0.015335835
-5.2147247e-05 -5.21453e-05 -0.015335835 -0.010749643 -0.00045168845 -0.015335864 -0.00045168726 -0.00045168892
6.986575e-38 -0.00045168726 -0.00045168726 6.736759e-38 -0.00045168726 -0.00045168726 -6.7394855e-38 -5.214604e-05
-5.2144962e-05 -4.7631076e-38 -0.015335885 -0.022078337 6.750088e-38 -0.015335885 -0.022078337 -4.2852694e-38
-0.0073858234 -0.019554328 -4.0645727e-38 2.0130462e-38 1.6515367e-38 -3.6464426e-38 -3.772684e-38 -4.3546098e-38
4.527246e-38 -2.087132e-38 4.6513552e-38 -3.2387685e-38 -4.8690985e-38 -0.0074879485 3.8166964e-38 6.7250085e-38
5.02826e-38 -7.564792e-39 -2.3409913e-38 3.0173364e-38 0.1349665 0.1712469 -0.21777064 -0.045353584
-0.32964864 -0.27756727 0.39248756 -0.03348598 0.009805809 -0.040513415 -0.03143334 -0.09387594
0.030745909 0.1921343 -0.3454405 0.24943483 0.082909696 -0.03317272 0.022416534 -0.06875254
0.14735258 -0.32803172 0.1721075 0.14759704 0.17132545 0.032995146 0.3709238 0.1532882
0.013471764 -0.218009 0.1201324 -0.0017040431 -0.11969141 0.33507088 0.107353225 -0.07053458
-4.919959e-38 -3.350185e-38 3.653011e-38 -1.1161062e-38 -2.3734148e-38 -3.1234245e-38 -5.1385194e-38 -3.2874322e-38
-3.4134448e-38 2.2913358e-38 -0.110670134 -0.4021091 -1.062701e-39 -0.31049988 -0.39305082 -2.3887806e-38
-0.033707313 -0.1221294 -0.08249157 -0.14082994 0.55107826 -0.36556005 -0.3276875 0.49672452
-0.0454726 0.052994184 -0.5222213 -0.17125587 0.31923753 0.58660024 0.0022522875 0.27401373
0.42228612 -0.16482322 -0.06329963 -0.53813815 0.20409597 0.050599497 0.50544125 -0.18982206
0.07042089 0.45527253 -0.090557784 0.38524705 -0.3896545 -0.05000806 -0.34232733 0.5292705
-0.38358045 -0.2728954 0.41474557 0.015250476 0.164309 -0.6250071 4.60744e-38 -4.952688e-38
-5.405588e-38 6.257346e-38 -1.9955404e-38 4.9633857e-38 4.9355016e-38 -5.203415e-38 3.806328e-38 7.862171e-05
0.016452577 0.32649383 0.10963096 0.06912347 0.22211947 -0.04381479 0.034547243 0.007736565
-0.03271738 -0.14331436 0.039300542 -0.017757576 0.12670685 -0.090272754 -0.021756025 -0.04209655
0.037370935 -0.1017554 0.1024483 -0.20074035 -0.08943498 -0.21294338 -0.027089098 -0.03194797
-0.086607866 -0.10497753 -0.06490613 -0.23382497 0.027950274 -0.056449108 -0.06460431 0.05695505
-0.063969284 -0.013200284 -0.017284283 -0.038045447 -0.19849357 -0.0014169323 -0.10073807 -0.039045528
0.13702187 -0.09460611 -0.12657902 0.06314862 2.03095e-38 4.609054e-38 5.8473797e-38 1.41199e-40

conv.bias f4 [200]
00000000: 0112 7fbb b35f d1bc 51fc 22bf f78f a7bf
00000010: c6f5 8dbe de0a 45be 1be7 53bf 2925 1fbd
00000020: 9dcf 9a3d e93c 98bc c010 9dbd f393 65bf
00000030: 42c5 29be c963 1fbe 0011 68be 4313 fbbd
00000040: 2194 a1bf e558 a5bf 36b5 bbbf a55f 76be
00000050: 5280 9fbb cc93 4abe 31f7 8dbd e6a5 f4bd
00000060: caf5 8bbd b5c4 f4bd 324a e0b5 f584 c8bd
00000070: af38 82ae 6861 4ebf cec4 04bf 01d5 e3a2
00000080: 8ef3 3cb8 f3f1 e1ba da72 4d97 7bca 2cbe
00000090: 99a4 f8bd e861 9abc 4e03 49bd da07 bcbb
000000a0: 9735 a1bd 8390 d9bd 756a acbf 02c9 63be
000000b0: 6653 4b88 1184 2bbf f191 87bf ec8f f0b1
000000c0: 96d2 dabd 2900 f9b3 a913 a5bc c16e c3be
000000d0: 27e1 02be b112 3cbe 3c99 68bd 5b4a e4bd
000000e0: 4bea 8bae 5922 b9bd 658e 9ebe 61cd babd
000000f0: fafb 3abe e081 90b3 cb65 aabd 0bc1 4bbd
00000100: cfc8 78bd e6ab 78bd dc45 2cbe 8034 cfbe
00000110: 658c 02be 27a5 d7a5 061b 76be 0790 7caf
00000120: 0db6 b4bd 7ddd b4bf bf36 84be cd4b fabe
00000130: 78fb c0bd e5ea 16be 03b3 afb2 7206 2dbf
00000140: 1d4c 4ebf 3207 76be 53f1 3cbf 4c8c 2fbe
00000150: e156 9dbd fda8 59b8 b213 27bd 4c13 9cbe
00000160: 0dc8 a7bb 8971 a5be 4e46 d8be ad88 3dbf
00000170: a4e8 2fbb dba0 7cbe 173b f9be 6818 55bf
00000180: bce7 24be add8 5abe c811 d0bd 144a 37be
00000190: 5add 64bd 0160 90be 1d4c 38bf 17df 5bbd
000001a0: 88aa 49bd f038 51be d733 d8be ed7b 02be
000001b0: 090b 12bf 19fa dcbc a6f9 f4be d7fa 53bf
000001c0: 7c47 0fbf 52b1 47be 040e 12be 2036 7bbe
000001d0: 905e 3abf da61 febd e5f3 e3bd 799b 60b9
000001e0: 8cd0 e7bc 067e 6bbf 56e8 babd da9d dcbc
000001f0: b43e 3bbe d317 51bf 7e9d 609a 3b93 6fbe
00000200: 5378 6fba 0c80 03bd 3e78 b8bc 627b 1bbe
00000210: fda1 34be 29cb 06be aa7b 23bf ea17 15be
00000220: c5dc dcbd cf51 a4be 2c6b 95bf 8b24 bfbd
00000230: 8478 32be 56aa edbd 77e2 ddb5 3054 7dbe
00000240: b120 8fbd 7f84 90bd b3c3 5ebd af13 41bf
00000250: 5b07 8abd f520 00bd c3e1 6e94 3c40 469c
00000260: 4c49 9ebf d221 0abe 76f2 0abd 1bb5 eebe
00000270: f683 82be adca 973e bfe9 d9bd 8334 5bbe
00000280: 0bf3 1dbf 0fbe 92be 1c76 dbbd cb27 2d3d
00000290: a79b d5bd ce96 9496 32b7 76bd 080a bbbf
000002a0: ed3f 00bd 795b 06bf 64d2 30be 9620 13be
000002b0: 8c24 17be 8e2e 4dbd c5fd f3be 55bf 7627
000002c0: 704f 2bbf b254 bdbd efb6 33be 284f 86be
000002d0: af59 52be fcdf 93bf 58ad 9fbd 4af8 a4bf
000002e0: b4bd 9cbd ea6d 86bc 203b 67be 8933 ffbd
000002f0: f725 08be e335 c4bd c6da 2aab bee9 0c3d
00000300: b1b5 e5bd 4c76 82be 6121 9ab4 2d15 ffbd
00000310: eacf 1ebd 8968 7ebe 8772 a2bd a289 3fbe
-0.0038920643 -0.025558328 -0.63666254 -1.309081 -0.27726573 -0.19242427 -0.82774514 -0.038853798
0.0755913 -0.018583732 -0.076692104 -0.8967888 -0.16579154 -0.15565409 -0.22662735 -0.12259533
-1.262333 -1.2917753 -1.4664676 -0.24059923 -0.004867592 -0.19782943 -0.06931914 -0.11945705
-0.0683399 -0.119515814 -1.6710894e-06 -0.097909845 -5.9217846e-11 -0.8061738 -0.518628 -6.1754e-18
-4.504952e-05 -0.0017238244 -6.6384036e-25 -0.16874115 -0.121407695 -0.018845513 -0.049075417 -0.0057382407
-0.078715496 -0.106232665 -1.3469988 -0.22244647 -6.1186125e-34 -0.6699839 -1.0591413 -7.0012813e-09
-0.10684697 -1.1594995e-07 -0.020150976 -0.38170436 -0.12781201 -0.18366505 -0.05678676 -0.11146995
-6.362607e-11 -0.090397544 -0.30968013 -0.09121204 -0.18260184 -6.729147e-08 -0.08320197 -0.049744647
-0.06073838 -0.06071081 -0.16823524 -0.40469742 -0.12748869 -3.7408466e-16 -0.24033746 -2.2970435e-10
-0.08823786 -1.4130093 -0.25823018 -0.48885956 -0.09422964 -0.14738043 -2.0454086e-08 -0.6758796
-0.8058489 -0.24026182 -0.7380573 -0.17143363 -0.076825865 -5.1894214e-05 -0.040790267 -0.30483472
-0.0051202835 -0.32313183 -0.42241138 -0.74036676 -0.0026841545 -0.24670736 -0.48677894 -0.83240366
-0.16104025 -0.21371718 -0.101596415 -0.17899352 -0.05587516 -0.28198245 -0.7199114 -0.053679552
-0.049234897 -0.20431876 -0.4222705 -0.12742586 -0.5704809 -0.026974725 -0.47846717 -0.82804626
-0.5596845 -0.19501236 -0.14263159 -0.24532366 -0.7280054 -0.124210075 -0.111305036 -0.00021420223
-0.028297685 -0.9198917 -0.09126346 -0.026930738 -0.18285638 -0.8167698 -4.6449335e-23 -0.23396008
-0.0009135056 -0.032104537 -0.022518273 -0.15183786 -0.17639919 -0.13163437 -0.6386057 -0.14559904
-0.10784296 -0.32093665 -1.1673331 -0.09333142 -0.17428786 -0.116047546 -1.6531693e-06 -0.24739146
-0.06988657 -0.070565216 -0.054385852 -0.7542066 -0.06739684 -0.03128143 -1.2060453e-26 -6.5595725e-22
-1.2366118 -0.13489464 -0.033922635 -0.46622548 -0.25491303 0.29646817 -0.10640287 -0.2140675
-0.6169898 -0.28660628 -0.10715887 0.042274278 -0.10430079 -2.400586e-25 -0.060233302 -1.4612436
-0.031310964 -0.52483326 -0.17267758 -0.143679 -0.14760035 -0.050093226 -0.47654548 3.424308e-15
-0.66918087 -0.0924467 -0.17550252 -0.26232266 -0.20542024 -1.155273 -0.077967346 -1.2888272
-0.076533705 -0.016409833 -0.22581148 -0.124610014 -0.13295732 -0.095805906 -6.069974e-13 0.0344026
-0.112162955 -0.25480878 -2.8709022e-07 -0.12455211 -0.0387725 -0.24844564 -0.079320006 -0.18704847

fc1.weight f4 [200, 200]
00000000: 0d17 b411 6076 4180 ee9e 7b3e 75ea ffbe
00000010: 1f61 933c 3507 4d3c 5a89 8d3b 8e45 bfbc
00000020: 8b23 74bd 65fa 6f97 2688 06bd 2308 e83c
00000030: d38c d9bd 886c a9bb 6287 20bf 8199 0abc
00000040: c4ba 11bf e6d8 3cbe 9ce1 00bf 53a7 323b
00000050: 81d8 351e 5e14 03b6 e631 f9bc afc0 36bc
00000060: 8cfc 6e3c fefb c9bd c458 cc00 917d f03a
00000070: 50cc 4001 bbea 0cbe 4a4c e83d b86b 9805
00000080: bee1 5f81 d116 b780 63d6 9d00 75fc a0bb
00000090: d679 eabb e073 5480 cc42 7dac 037b 0622
000000a0: 6e05 debd b8ad 9aab edd4 0a3f c20f 8abc
000000b0: d3b6 8180 ae88 a53c b35b f2be 88b0 0580
000000c0: 6ef0 823c ec59 2d00 2b8e 073c f2e3 1dba
000000d0: f0de fcbb f8a0 bb37 98c5 7bbd 0751 35bd
000000e0: 68dc 3581 f8e6 f2bc 7a9b 69be ceaf fd2e
000000f0: 9c31 cbbc 6bb7 6c00 b6c1 79bd 3643 bc38
00000100: a21c babd 87fd 193c a2d6 d53c 2640 2e3c
00000110: 5722 2bbd 844a 0081 c9ad 0a3e 6100 fb16
00000120: e21f fabd 4a16 5cbf 62f8 c7bd dc03 9c3e
00000130: fd20 c43d ff9a 82bc fce1 4681 6d59 0abd
00000140: cffc 8ebe b3dd a13c 9edf 5e3e 7833 2437
00000150: 2124 59bd 9723 a700 5d07 133e ea90 a8bb
00000160: 10aa 7100 8530 163e 7ba7 debc 6cd7 18bf
00000170: a6d4 8400 cbed da3d 65e4 a1be 88eb b9be
00000180: ad90 52bd a6ff f03d 526f fbb3 1ca1 67bc
00000190: 7b58 13a6 3b35 4036 9d72 4cbd b187 c93b
000001a0: 8e71 4f81 ea9b 003e 9081 c23e 7446 8ebd
000001b0: b915 ab3d eb60 d4b8 d9c1 2ebc ea71 adbe
000001c0: bea5 e8be 2924 9abb 08b1 39bc 6124 97bb
000001d0: 991f 44bf 96d9 3abd 3367 9abc 8e16 3680
000001e0: 8fa9 1420 aee3 8abc ff41 b5bc 1294 1c81
000001f0: 6e59 b03c ab66 d53e b6b4 a280 805b 273d
00000200: 009c 1581 940b 0d81 a054 91ba 0e4e 7b3d
00000210: a9f8 283e fa8f 08bd 9f97 52bc 084c 353d
00000220: 7623 9d3e d739 4c3c 40b2 a53b 6a09 70bd
00000230: 321f 07be d174 b63d 6c6a 9601 c0d3 863d
00000240: af6a 80bc 1a58 843d 24e7 c2bc ed14 d83d
00000250: 84ef 1900 1f0c c2bc 712d f180 9b2e 8e00
00000260: efd0 f13e 8c7d 7dbd 40e0 eabc c14d 2bbe
00000270: 6cd3 ef3d dac4 04bd 6022 eebc 51a3 83bd
00000280: 1d36 a43d 620e eb80 cf87 943d cda6 7abc
00000290: ee3b ab3d c254 bf00 a7ea 8081 6e0c 61bd
000002a0: 2dff 87ba 14f4 f3be 6b90 933d 25a2 573c
000002b0: b23f b33d d917 2e3c 616f 6cbc 558f e9bd
000002c0: 3cdb c3bb 6a05 0ebd 8c1b 463b 7f5f 8c3d
000002d0: 32d7 9f3c 1401 543e 60ca 063c 07fc 233f
000002e0: 431e 23bd 349b c188 e4aa 003d 4cd5 bebd
000002f0: 3b3e 13bd 9084 acbb 2a20 9e00 7137 9a3d
00000300: 893a 7200 1a58 a33b 4086 0301 2a58 55bc
00000310: 3b7a 95bd ab19 2cbd 0749 45bd 830b 0abe
00000320: 4ca1 d700 9460 8a01 6043 c1bd e3f5 923e
00000330: c301 bcbd adac 8dbc 0b7f 51bc 21b3 d2bd
00000340: 5fa1 12be 2b06 299a f8d8 9d3b d1f2 a23e
00000350: 5963 cdbd 7e2d 23be 0953 7c3e 11b9 a23a
00000360: 6c8c fe3e 9209 acbd ddcc a23b 725c 08bc
00000370: 57b1 0797 79ba 96bc 940b 3a3b 7822 0dbc
00000380: 3df8 24bd f290 8f3d b8a2 0181 82e0 5f3c
00000390: c0b1 b200 7ce5 36bf dd9b 203c c031 9080
000003a0: 0476 1c01 522d 4580 29ae 1400 9bf1 42bd
000003b0: 487b 463d df6f 2c00 4cfb 4780 c7fb 3000
000003c0: da54 493d 510f 1200 4363 1e3e f95b d0bd
000003d0: dab9 0280 4ebe 553f 6918 fc3e 49e2 6380
000003e0: ad6d 82bc bcd2 2881 983e 833c 0714 a93d
000003f0: 38d7 383d 68d2 9a00 d21b 62bd 72a9 99bb
2.8413199e-28 -6.011772e-39 0.24572346 -0.49983564 0.017990647 0.012513925 0.004319352 -0.023348596
-0.05960421 -7.7541107e-25 -0.032844685 0.028324192 -0.10622563 -0.0051704086 -0.6270658 -0.00845945
-0.56925607 -0.18442115 -0.5034425 0.0027260378 9.626832e-21 -1.9532376e-06 -0.030419301 -0.011154338
0.014586579 -0.09862517 1.8766284e-38 0.0018347969 3.5411418e-38 -0.13761418 0.11342676 1.4333581e-35
-4.1120593e-38 -1.6814081e-38 1.449508e-38 -0.0049129077 -0.0071556373 -7.75575e-39 -3.5990542e-12 1.8225508e-18
-0.108408794 -1.0990575e-12 0.5423115 -0.016853217 -1.1912364e-38 0.020206776 -0.47335586 -5.22505e-40
0.015983786 4.164855e-39 0.008273642 -0.0006023041 -0.007717006 2.2367094e-05 -0.061467737 -0.044266727
-3.3402583e-38 -0.02965115 -0.22813216 1.1536337e-10 -0.024803929 9.984032e-39 -0.060975753 8.9770576e-05
-0.090874925 0.009398825 0.026103321 0.010635411 -0.041780796 -2.356335e-38 0.13542856 4.0551476e-25
-0.122131124 -0.8597151 -0.09764172 0.30471694 0.095766045 -0.015943049 -3.6528992e-38 -0.03377669
-0.27927253 0.019759035 0.2176499 9.787145e-06 -0.05301297 1.5349295e-38 0.14358278 -0.005144228
1.0438418e-38 0.14666946 -0.02717947 -0.5970371 1.219857e-38 0.10689887 -0.31619564 -0.3631251
-0.051407505 0.11767511 -1.17083474e-07 -0.014137533 -5.1120784e-16 2.8641214e-06 -0.04991399 0.006150209
-3.8101367e-38 0.12559476 0.37989473 -0.069470316 0.08353753 -0.00010127 -0.010666334 -0.33875972
-0.4543895 -0.0047040177 -0.011333711 -0.004612491 -0.76610714 -0.045617662 -0.018848037 -4.967208e-39
1.259219e-19 -0.01695427 -0.022126196 -2.875891e-38 0.021527018 0.41679892 -1.4942177e-38 0.040858746
-2.7478902e-38 -2.5905917e-38 -0.0011087842 0.061353736 0.16501106 -0.03334043 -0.012853532 0.044261962
0.30691117 0.012464962 0.0050566494 -0.058602728 -0.13195494 0.08909 5.5254006e-38 0.06583357
-0.01567587 0.064621165 -0.023791857 0.10550866 2.38181e-39 -0.02368742 -2.2148656e-38 1.305736e-38
0.47229716 -0.06188731 -0.028671384 -0.1672888 0.117102474 -0.032414295 -0.029069126 -0.064276345
0.08018134 -2.1586501e-38 0.07252466 -0.0152985575 0.0836104 1.7570985e-38 -4.7356484e-38 -0.054943494
-0.0010375731 -0.47647154 0.0720528 0.013161217 0.08752383 0.010625803 -0.014430852 -0.114042915
-0.0059770625 -0.034673132 0.0030228822 0.06854152 0.019511793 0.20703536 0.008226961 0.6405644
-0.03982378 -1.1652253e-33 0.031412974 -0.09318027 -0.03594802 -0.005264826 1.4521547e-38 0.07530106
1.0490245e-38 0.0049848678 2.415722e-38 -0.013021508 -0.07298704 -0.042016666 -0.048165347 -0.13480954
1.9802494e-38 5.0831777e-38 -0.09436679 0.28703222 -0.091800235 -0.017294252 -0.012786637 -0.102880724
-0.1431937 -3.4953363e-23 0.0048171245 0.3182588 -0.10028715 -0.15935323 0.2464105 0.0012414773
0.49716508 -0.08400263 0.0049682693 -0.008322822 -4.3844687e-25 -0.018399464 0.0028388249 -0.008614175
-0.0402758 0.07010068 -2.3810303e-38 0.013664367 1.6410483e-38 -0.71443915 0.009802786 -1.3242158e-38
2.8737347e-38 -6.352907e-39 1.899187e-39 -0.047593694 0.048457414 4.080894e-39 -6.610469e-39 4.498425e-39
0.049153186 1.658533e-39 0.15467553 -0.101737924 -2.50342e-40 0.83493507 0.49237373 -9.17289e-39
-0.015921438 -3.100792e-38 0.016021058 0.08255773 0.045127124 1.4218146e-38 -0.055202313 -0.004689389

fc1.bias f4 [200]
00000000: d481 86be cb5c 0ebf 1008 96be 18b1 babe
00000010: 9c6b 9abe e14f dcbd e76e 16bf b5b0 10bf
00000020: c31d c8bf 70fa b4bd b705 37be e853 27bd
00000030: 0091 96be ba49 1abf 3b27 6fbe 0402 0cbf
00000040: b336 c8bd 0bcd 3c3e 3641 c83c ffae 2cbe
00000050: 2223 15bf 1280 09be 4f1c c3bd 048d 19be
00000060: 333d 56bf 6675 0ebe 7af1 f6bd 8afc acbe
00000070: d9f0 223e 6036 16bf 23ce e4bd bcc1 d1bd
00000080: c67f 5fbf 9447 c2bc 0b48 3cbf 24c6 08bf
00000090: 54e1 32bf a05d 23bf c25c 5b3d 6163 00be
000000a0: ab0f 0abf 9264 ad3d c599 233b 8e9e c1bd
000000b0: 4037 39bf 8dfd f4be 1ba4 24bd e293 00bf
000000c0: 45bc 98be 29bc 21be b5e1 d9bd 0940 05be
000000d0: 313b 9ebd a5f6 dabd 848a d23d af1f eebe
000000e0: d8d2 32bf 0cc1 29bf 1d9b 55bf fca2 08bf
000000f0: 9e13 c0be 8811 663d ee56 c1bd 1f86 293e
00000100: ae91 e7bd d4e4 34bd 3006 18bf a091 5cbe
00000110: a0fb 02bf a27a 1cbe 68cc 0cbf 4972 2a3d
00000120: 6632 a0be eebd 12bf 0a86 10bf a7ea a4bc
00000130: 6629 b63d 9b53 39be ecf7 483e 6a17 8abd
00000140: db29 b2bd ec85 93bf 1c88 8fbe a39e e3bd
00000150: 9643 073e 2998 19bf 510d 3fbd 6424 403d
00000160: 8648 d9be 587d 52bf e4b3 9dbd ab38 9bbd
00000170: fd96 23be 1b0e 2bbe 22f0 efbe e568 b1bd
00000180: 4a5d 2fbe 4b33 683e 9510 8c3d 8f5c aebe
00000190: 2f20 06bf 5e00 4bbd e3df 58bf 33d8 1fbf
000001a0: b936 efbc dfd6 b2bc d7fc a8bc 9fa6 b0bd
000001b0: fdb4 06bd 964b 30bf 2abc 4fbd d579 e43d
000001c0: 88a4 75bf 9d32 62bd c55c 4dbf a39d 58bf
000001d0: ef7f a6be 71b5 4ebf fe29 2f3e adaa d2be
000001e0: d40c 2bbe 0bcb 1ebc 8027 4bbe d612 d8be
000001f0: 297d 32be 5f9e fc3d 978b 49bf bf0f 2fbf
00000200: d39e 0ebf 8f97 02be d0a4 efbe 5c26 693d
00000210: 748f 3cbd 9ecc 52bd 92cb cfbb 471b 2e3e
00000220: 5e04 2cbe 6c27 f93d e3d1 f0be fb6f a8be
00000230: 7705 78bd 879d 653e d159 59bf 99e0 61bf
00000240: 5a35 37be 99c1 f0be cc6e 55be 3e6f a13c
00000250: cc4e 1cbe 60f8 dbbd 2e90 d6bd d80f 51bf
00000260: 0725 f0be a658 773e b38e afbd bc2b f2bd
00000270: c63b 22be 8478 11be a6d0 bbbd 7b36 0dbe
00000280: a04a 2ebf 4350 bdbe 4da3 d1be 8248 a23d
00000290: 055d edbd 737b 53bf ae26 11be 729c 803e
000002a0: 1ea0 e9bc 0973 25bd 9b31 2cbf c034 babd
000002b0: 2231 3a3e 5a36 91bf 4462 6dbf c130 1abe
000002c0: a53b 463e 73f3 57bf ced8 3bba ed9e adbd
000002d0: dacc 76bf 71c1 1bbe cfca 92bd 30c8 40bf
000002e0: 5d34 52bf c7c0 213e 2f4a 29bf 6319 62bf
000002f0: 6063 21be a8af 90be 942c 1a3e 5c2a 3ebf
00000300: f5e1 69bf ddac c9be 4d7a f2be 5f0f ebbe
00000310: e320 bdbe 891c 22be 3238 28bf 85c4 c8be
-0.26270926 -0.5561034 -0.29303026 -0.36463237 -0.30160224 -0.10757423 -0.58762974 -0.56519634
-1.5634083 -0.0883683 -0.17873274 -0.040851504 -0.294075 -0.6026875 -0.23354809 -0.54690576
-0.09776058 0.18437593 0.024445157 -0.1686363 -0.58256733 -0.13427761 -0.09526884 -0.149952
-0.8368713 -0.13911971 -0.12057777 -0.33786422 0.15912189 -0.5867672 -0.1117213 -0.1024203
-0.8730434 -0.023715772 -0.7354743 -0.5342734 -0.69875073 -0.63814735 0.053555258 -0.1253791
-0.5393016 0.08466448 0.002496348 -0.0945407 -0.7234993 -0.47849694 -0.040195566 -0.5022565
-0.29831138 -0.15794434 -0.10638753 -0.13012709 -0.077261336 -0.10691575 0.10280326 -0.46508548
-0.6985297 -0.6631019 -0.8343981 -0.53373694 -0.37514967 0.056169063 -0.09440409 0.1655507
-0.11307083 -0.04416354 -0.5938444 -0.21539927 -0.511652 -0.15281156 -0.549994 0.041612897
-0.3128845 -0.5732106 -0.5645453 -0.020131422 0.08894615 -0.18098299 0.19625825 -0.06742747
-0.086993895 -1.1525245 -0.2803353 -0.11114242 0.13209376 -0.599978 -0.04664356 0.046909705
-0.42438143 -0.8222251 -0.07700327 -0.07579168 -0.15975566 -0.167046 -0.46862894 -0.08662585
-0.1712543 0.22675817 0.068391 -0.34054992 -0.5239286 -0.049560897 -0.84716624 -0.6243927
-0.029200898 -0.021830974 -0.020628376 -0.086255305 -0.032887448 -0.68865335 -0.050716557 0.1115605
-0.9595418 -0.05522405 -0.8021968 -0.84615535 -0.3251948 -0.8074561 0.17105862 -0.4114584
-0.16704112 -0.009691964 -0.19839287 -0.4220187 -0.17430557 0.123348944 -0.7872862 -0.683834
-0.55711097 -0.12753128 -0.4680543 0.056921348 -0.046035245 -0.05146467 -0.006341406 0.17002593
-0.16798541 0.12165722 -0.4703513 -0.32897934 -0.060552087 0.22423373 -0.84902674 -0.88233334
-0.17891446 -0.47022703 -0.20843047 0.019706365 -0.15264434 -0.10740733 -0.10476719 -0.816648
-0.4690325 0.2415491 -0.085721396 -0.11824748 -0.15843114 -0.1420613 -0.09170656 -0.13790314
-0.6808262 -0.36975297 -0.409449 0.07923986 -0.11590008 -0.82610244 -0.14174911 0.25119358
-0.028518733 -0.04039291 -0.6726319 -0.090920925 0.18182805 -1.1344712 -0.92728066 -0.1505766
0.1935869 -0.8435585 -0.00071657903 -0.08477578 -0.9640633 -0.15210511 -0.07167589 -0.7530546
-0.8211115 0.15796195 -0.6612882 -0.8831999 -0.15760565 -0.28259015 0.15056068 -0.74283385
-0.9136041 -0.39389697 -0.47358933 -0.45910165 -0.36939153 -0.15831198 -0.6571075 -0.39212433

fc2.weight f4 [600, 200]
00000000: bf35 aa3e 5e6b 1c3e c53c 8d3d 0dcf 6f3e
00000010: d9be 0a3d 210c 40be 8341 d3bb ac23 e33d
00000020: 7e5f 393e 45ff 613e 95fc 9c3d 9fa3 1e3e
00000030: a662 27bd 8fe3 363e 0812 853e 04a9 333d
00000040: f7e2 5d3e e552 1bbe f75d e9bd 5df4 dfbd
00000050: 254b d7bd 6075 4ebe ad51 493d 58a3 563e
00000060: 7c6f a5bd 0199 df3c 5aae 06be aebd 1abd
00000070: 1cae 063e cd48 8dbd dfbd b6bd 8adb 1f3d
00000080: 774c adbc 9b37 e03d 2dad 3ebe a3bf 82be
00000090: 80e7 c63d c435 823e 3fd9 933c 0b19 933d
000000a0: ece6 88be b36c d2bd 767b 80bd cafc 943c
000000b0: fe29 6bbe b653 353e c2b5 d33d 2f49 aa3d
000000c0: c52a 3f3d c4c5 5c3d 99c7 13bd 4635 40bd
000000d0: e7ee f1be 80a4 eb3d a90b dbbd 0f46 2dbe
000000e0: 1d21 383d 152c 6d3e 8c90 12be 929b dfbd
000000f0: a8f7 613e 1747 ba3d 1e39 3bbe ec46 933d
00000100: da91 b3bc 998c 173d 4652 8dbe 1874 693e
00000110: 3aa3 3abe 837a 3e3e cd04 4dbc 18f9 c1bd
00000120: d300 4f3e f70d ae3d ea79 8dbe a172 3dbd
00000130: d5f9 cf3d 684b 98be c024 6e3e 8ae1 823d
00000140: d2fc 91be a459 25be bbff 1dba 31f3 65bd
00000150: 9817 c4be 5d65 a6bd 2d07 aebd 4810 c3bc
00000160: 39a2 e63d 60cc febd 3aaa 8c3e c32a a6be
00000170: f08e 1a3d 09b5 6abe 0b79 953c f82e 4c3c
00000180: cad1 4c3d 142b b83d 2cc7 31bd 7a30 9cbd
00000190: b166 463d 4acb 87bd 9d4a 303e 69aa af3d
000001a0: b93b d93b 0848 3dbe 2c55 aebe 2517 adbe
000001b0: 7300 16be 2c05 a63d 2d7f 86be f992 5c3e
000001c0: dff8 37be 7d96 693e c666 0f3e 00e4 5c3e
000001d0: eb81 ed3d 8786 b73e b7b9 b0be b907 2b3d
000001e0: 434d 02be d9a2 25be a30f 843e 9202 113e
000001f0: 3e83 22be fab9 33bd 32d9 57be 8a62 4e3d
00000200: 00a0 433d b36c 30bd 0556 0bbf da5f 02be
00000210: ddcb dabd 9cce b03c 126e 98be c4c2 84be
00000220: d857 563e f665 c83d ac8f 92bc 401f 133d
00000230: 4f56 a53d 285a 6cbe 559b 14be e981 473d
00000240: 9a2c 243e 1095 b93d 16a3 17be e325 75be
00000250: 2e34 b7be f158 053e 053b 813e 633c 81bc
00000260: 5e7f 9dbe 266f 3b3e 1731 783e 85a1 f8bc
00000270: 453a 74be e636 573e e2b8 583d 243e 65bd
00000280: b6d3 81be 3141 30be d7f5 36bc 29b5 d03c
00000290: 2646 573e 856e 5d3d 4325 b53c 2653 e43d
000002a0: fb8b 22be 0212 993d fa3b 953e 0e24 db3d
000002b0: 74c9 043e 2b32 a43e 6716 d7bd 78a2 c03d
000002c0: d2e6 103e 665b 1bbe 2e83 03be 0693 253e
000002d0: b48d d43d 525f 1a3e 0562 d13d 4783 9fbe
000002e0: 2184 1f3e a79d e1bd cfba 3a3d 8821 633e
000002f0: 87d9 c43d e86e 2fbe 4724 af3d 83fd 91be
00000300: 0da0 bebc 65a5 d1bc 6411 643e e7cd e63d
00000310: aa2d 3bbc 3e18 21be 3464 b43e 8cb2 05bd
00000320: ac0c 0d3e 8636 3ebf c1e5 acbd b82d 84bf
00000330: 09b6 763e b03c a6be 671b 0bbe e53f ee3d
00000340: 245e 4cbe a074 2e3e ad1f 553e d0da 763c
00000350: 6984 29be 0ba9 74be d354 0d3e fd2b 79bc
00000360: c709 723e f7f2 843d 47c1 c9bd 3f0a db3d
00000370: 8c53 03bf 102c 39be 3f21 a33e 3b4e 68bd
00000380: d61e 7ebe ad38 b3be 1bbe ae3e 78a0 20be
00000390: e0b4 ecbc d5a8 d0bd 72d4 6d3e 7082 60be
000003a0: 0f27 843e 1477 993e 0e23 32be b285 2c3b
000003b0: 7b58 2dbe 29c4 df3e a092 a4be feef 263e
000003c0: 57d7 0abe fd44 043e fc1d 0dbe 7843 d33d
000003d0: 33ce f83e 9ba5 c8be af0a 07be 8a1e c1be
000003e0: d9b2 9abd 2613 09bf 9c02 30be 91ac 553e
000003f0: 6104 08bf 944c e5bb fd68 c43d 881f da3c
0.3324413 0.15275332 0.068963565 0.23418827 0.033873413 -0.18754627 -0.0064470186 0.11090788
0.18102834 0.22070034 0.07665364 0.15492104 -0.040865563 0.17860244 0.2599032 0.043862358
0.21668611 -0.1516834 -0.113948755 -0.109352805 -0.105123796 -0.20161963 0.049150158 0.20960748
-0.080779046 0.027294638 -0.13152447 -0.03777855 0.13152355 -0.06898651 -0.08922934 0.03902773
-0.021154625 0.10948106 -0.18620749 -0.25536832 0.09712124 0.25431645 0.018047927 0.07182511
-0.2673868 -0.10274639 -0.06273548 0.018186945 -0.22965237 0.17707714 0.10337402 0.0831474
0.046671648 0.05389954 -0.036079023 -0.046925806 -0.4725258 0.11505985 -0.106955834 -0.16921256
0.044953454 0.23161347 -0.14312953 -0.109183446 0.2206713 0.090955906 -0.18283507 0.07191262
-0.021920133 0.03699932 -0.27601832 0.22798193 -0.18226328 0.18601422 -0.012513352 -0.09471339
0.20215158 0.08498757 -0.27632076 -0.046251897 0.101550736 -0.2974503 0.23256207 0.063906744
-0.285132 -0.16147476 -0.00060271815 -0.05614013 -0.3829925 -0.08124802 -0.084974624 -0.023811474
0.1126141 -0.12441325 0.27473623 -0.324545 0.037733972 -0.22920622 0.018246194 0.01246237
0.050004758 0.089925915 -0.043402836 -0.07626434 0.048437778 -0.06630571 0.17215963 0.08577425
0.006629434 -0.18484509 -0.34049356 -0.3380672 -0.14648609 0.08106455 -0.26268902 0.2154044
-0.1796603 0.22811313 0.14004049 0.2157135 0.115970455 0.35844824 -0.3451669 0.04175541
-0.12724786 -0.16175403 0.2579318 0.14161137 -0.15870377 -0.043878533 -0.21078947 0.050386943
0.04776001 -0.043072414 -0.5442813 -0.12731877 -0.10683415 0.021582894 -0.29771477 -0.25929844
0.20931947 0.097850725 -0.017890774 0.035918474 0.08073103 -0.23081267 -0.1451238 0.048707876
0.16032639 0.090616345 -0.14808306 -0.23940234 -0.35781997 0.1302221 0.2524034 -0.015775865
-0.30761236 0.18304119 0.24237476 -0.030350456 -0.23850353 0.21017036 0.052910693 -0.055967465
-0.25356835 -0.17212369 -0.011167011 0.025477009 0.21022853 0.054060478 0.022112494 0.11148672
-0.15873711 0.07474138 0.2914732 0.10700236 0.12967473 0.32069525 -0.1050232 0.094059885
0.14150551 -0.15171584 -0.1284301 0.16169366 0.1037859 0.15075424 0.10223774 -0.31154844
0.15577747 -0.11016398 0.04558831 0.2218076 0.096118025 -0.17132151 0.08551841 -0.28513727
-0.023269678 -0.025591562 0.22272259 0.112697415 -0.011424461 -0.15731904 0.352327 -0.03264098
0.13774365 -0.74301946 -0.084422596 -1.0326452 0.24092878 -0.32468176 -0.13584672 0.11633281
-0.19957787 0.17036676 0.20812865 0.015066817 -0.16554417 -0.2389261 0.13801889 -0.0152082415
0.23636542 0.06491654 -0.09851318 0.10695314 -0.5129936 -0.18083215 0.31861302 -0.05671523
-0.2481645 -0.35004178 0.34129414 -0.15686214 -0.028894842 -0.10188452 0.23225573 -0.21924758
0.2581105 0.29973662 -0.17396185 0.0026324806 -0.16928284 0.43704346 -0.32143116 0.16302487
-0.13558708 0.12916942 -0.1378097 0.10315603 0.48594818 -0.39188847 -0.13187669 -0.37718612
-0.07553644 -0.53544843 -0.17188495 0.2086661 -0.5313168 -0.006997654 0.095903374 0.026626363

fc2.bias f4 [600]
00000000: 9bc7 563d abfa df3e 1c04 703e 7f33 863c
00000010: e917 edbd b927 cf3d 42e8 133e 8ce2 9f3d
00000020: 6ad0 42be 76a5 61bd 80ce acbd e782 66be
00000030: 4153 393d 40ec 87bd d762 3ebf 4e43 ecbd
00000040: 37b3 0ebe 20aa cbbe a46f ae3d fb6e 66bf
00000050: 8b67 20bd 62ec 66bd e3d2 1b3f 0ac7 dbbc
00000060: 8151 f23c 8d61 8ebe 386d 9d3f 34d7 f43c
00000070: 6ae0 3a3b 7f6b 9ebd f48b a93d 80fd 213d
00000080: b06f 71be 42f1 953b bbc2 5a3d 8e1e fcbd
00000090: 93e9 f13d 717e b7bd 75ab c0bb 3701 59bd
000000a0: fa60 ddbb a848 643e 3ca4 803d 66a6 6abd
000000b0: 889d 083d 9b27 b03d f57d 013e 1dbb b5bc
000000c0: 7b0e 58be 36d4 2c3f 0adb a2bd 5faf d93d
000000d0: 08cc 653f e0b0 95bc dff4 7a3d 3b12 c0bc
000000e0: aebb 703d 1873 05be 4acf 50be 2807 ff3e
000000f0: 3e8c 783f 2d02 813e ce3f cf3d 6875 1cbe
00000100: 9fa3 913d 6848 8abc ca24 543c d893 05be
00000110: c154 6f3d a5b3 073f 79ff c5bc a5d0 983e
00000120: 474e 08be 5e35 783c c06a 893e 48d1 5dbe
00000130: 7291 983e 6086 90bf d78e 4bbe b85a 94bd
00000140: 95b1 963d b96c cc3d 4f00 f8bd 6363 debd
00000150: 67bc 03bd 000f f2ba 07e3 863d efa2 e53c
00000160: 2760 0ebd b626 7f3e 7ef1 a5bc 6d8e 193d
00000170: 64cd 21c0 2b0b 05bd 887c ccbd 8ffb 223e
00000180: 7c3b 05be 0519 f33d ed09 95bf c7f5 313e
00000190: e5a4 f83d cd79 43bd e497 60be cb06 a23d
000001a0: ed16 a73d 2f39 d93e 6f9e b73d 3ecc 3ebe
000001b0: 5481 75be 38ce 53be ad67 8bbd 74ec 1bbc
000001c0: 7b42 983f 6653 423e bfe8 dd3d 8310 c83e
000001d0: cf6a 97bd 7099 0fbf 9078 95be 416f 37bd
000001e0: f657 d5bc 0c52 a03d 906a 91be ea72 0fbd
000001f0: 47f8 613c fa53 22be 7a85 843d d340 5bbd
00000200: 823c 23bd 18b8 43be 688e e2be ea40 17be
00000210: e737 863d e60d d4be 8371 f23e fb9f 0abe
00000220: 13fe 963c dd17 d63d 8b70 2f3c 3e6c 903d
00000230: 59f6 b53b 68a9 d3bd c792 07bd 0326 b9bd
00000240: 3d7f bb3d e8ea 753c fbba 67bd 94a4 dbbd
00000250: c493 9bbc b4f2 26bc a597 2a3d 93f5 043e
00000260: 5695 c7be b239 73bd 1eb0 903d f33d b23d
00000270: 841a e5bd 25cc 8ebe a031 28be 5b95 e43d
00000280: 0b39 c8bd 6f06 d9be 2d64 01bc e176 843d
00000290: 0cc9 453e 9822 eebd 39a8 ecbd 64aa 81be
000002a0: 1fd4 c9bd 6288 083c cf01 22bf 5f65 19c0
000002b0: 2284 e93d 74f2 093e a847 b5bd c2f5 dbbe
000002c0: f68c 57bd 5982 5e3e a43e 9dbf 9c47 b9bd
000002d0: 8796 82bc ab09 5c3e 457c 24bd c26d 983c
000002e0: 6652 123f 6e1a 09bb 456a 103e c0e1 a03d
000002f0: a67d 01be bf0a e4bd 44aa 0bbd 8ca1 93bd
00000300: ec86 2d3c eeb7 123d 40d3 9cbc ac8e eb3d
00000310: b823 8dbd d100 89bd 4f35 283f ec0c d23c
00000320: b9cf 12bd eace 39bf 68d6 47bf 3fdc 323c
00000330: d350 16bf 661a 13be 33d4 dcbd 45f3 31bd
00000340: dde3 273d a9c7 b23f c681 9f3c 607f 9cbd
00000350: 880d 55bc 79d7 15bd 1f48 113e e231 f23d
00000360: a3a0 07be 723f 94bd c47e 84bd b045 00be
00000370: 1f04 6bbd 3f1c 39bd 2276 72bd a2b2 8b3e
00000380: 40f3 9abe c145 ea3e 2b7d ed3d 7f24 d43d
00000390: 1121 a53d 2037 af3a 0349 f63d f9ef 283b
000003a0: 6753 71be 3cca 053b 3f61 27bd 8e96 a33a
000003b0: cfc8 ddbe 1829 1dbd 9410 d63d 34e7 b2bd
000003c0: ab6d 6c3e c7af c0bd a3cb 213e 7552 a93d
000003d0: b8f4 9d3e 4937 c9be 6f58 333d 7d2a e1bd
000003e0: a8fa 63be 6d80 9d3d 17d4 43be e4e9 1cbe
000003f0: 776e bb3f 9086 98bc 72e8 58bd bf1c 333d
0.052436452 0.43745932 0.23439068 0.016381977 -0.11576826 0.10114998 0.14444068 0.07806882
-0.19024816 -0.055089436 -0.08437824 -0.22510873 0.045245413 -0.06636858 -0.7436957 -0.11536275
-0.13935553 -0.39778233 0.085173875 -0.9001309 -0.039161246 -0.056377776 0.6086866 -0.026828308
0.02957988 -0.278088 1.2298956 0.029887773 0.002851511 -0.07735347 0.08278647 0.039548397
-0.23577762 0.0045758793 0.053408366 -0.12310515 0.11812129 -0.08959664 -0.0058798143 -0.052979674
-0.0067559453 0.22293341 0.06281325 -0.057287596 0.03335336 0.08601304 0.12645705 -0.02218395
-0.21099274 0.6751131 -0.07951935 0.106291525 0.8976445 -0.018272817 0.061268684 -0.023446193
0.058772735 -0.13032186 -0.20391575 0.49810147 0.9708899 0.25196972 0.10119592 -0.15279162
0.07111286 -0.01688023 0.012948224 -0.13044679 0.058430437 0.5300849 -0.02416967 0.29846683
-0.1331111 0.0151494425 0.26839256 -0.21661866 0.29798466 -1.1291008 -0.19878708 -0.07243866
0.0735809 0.09981675 -0.12109434 -0.108588 -0.032162096 -0.0018467605 0.06586271 0.028031794
-0.034759667 0.24917111 -0.020256754 0.037489343 -2.528161 -0.032481354 -0.0998469 0.15916274
-0.13010973 0.118700065 -1.1643654 0.17378913 0.12140826 -0.04772358 -0.21932942 0.07911452
0.081586696 0.4242644 0.08965766 -0.186326 -0.23975116 -0.20684135 -0.06806884 -0.009516824
1.1895288 0.18977126 0.108354084 0.39075097 -0.07393419 -0.560935 -0.29193544 -0.044783834
-0.02604292 0.07828149 -0.28401613 -0.0350217 0.013792104 -0.15852347 0.06470771 -0.053528618
-0.039852627 -0.19113195 -0.44249272 -0.14770856 0.06553631 -0.41416854 0.47352228 -0.1353759
0.018431699 0.1045377 0.010707985 0.070518956 0.0055530486 -0.10335046 -0.033098962 -0.09040453
0.09155128 0.015009619 -0.056574803 -0.1072475 -0.018991359 -0.010189701 0.041648526 0.12984304
-0.38981122 -0.059381194 0.07064842 0.08703222 -0.11186698 -0.27890125 -0.1642518 0.111613
-0.09776505 -0.4238772 -0.007897419 0.06467987 0.19314975 -0.11627692 -0.115555234 -0.2532531
-0.09854912 0.008333297 -0.6328401 -2.3968122 0.114021555 0.13471395 -0.08851558 -0.42960936
-0.052624665 0.21729411 -1.2284741 -0.090468615 -0.015940918 0.21488063 -0.040157575 0.018607024
0.5715698 -0.0020920294 0.14103039 0.078555584 -0.12645587 -0.11134862 -0.034097925 -0.07208547
0.01059125 0.03581994 -0.0191437 0.11501822 -0.068915784 -0.06689609 0.6570634 0.025640927
-0.03584263 -0.7258135 -0.7806153 0.010916769 -0.5871708 -0.14365539 -0.10782661 -0.04344489
0.04098879 1.3967181 0.01947106 -0.07641482 -0.013003714 -0.036582444 0.14187668 0.11825921
-0.13244872 -0.07238664 -0.06469491 -0.12526584 -0.057376977 -0.045192953 -0.05919469 0.27284724
-0.3026371 0.45756343 0.115961395 0.103585236 0.080629475 0.0013367869 0.12025645 0.00257778
-0.23566972 0.002041473 -0.040864225 0.0012480782 -0.43317267 -0.03836927 0.10452381 -0.08735505
0.2308871 -0.09408527 0.15800337 0.082676806 0.30850768 -0.39299992 0.04378551 -0.10994432
-0.22263587 0.07690511 -0.19123875 -0.15323597 1.4643086 -0.018618852 -0.052956052 0.043728586
