ActionEncoder_EffectDecoder_NLtoAV/best_decoder_parameters.pt (torch, 691543 bytes, 6 tensors)

conv.weight f4 [200, 6, 3, 3]
0	0xbdd7ec81	-0.105431564
1	0x3e1e7ca8	0.1547724
2	0x3ebc3095	0.36755815
3	0x3f5e1620	0.8675251
4	0x3fe64205	1.7988898
5	0x3fb86b92	1.4407828
6	0xbe915d76	-0.28391618
7	0x3e82f0d4	0.25574362
8	0x3ea3c054	0.31982672
9	0x3e8a8193	0.27051982
10	0x3d294d88	0.041333705
11	0xbf014431	-0.50494677
12	0xbf25f1b7	-0.6482195
13	0xc06c4d93	-3.6922348
14	0x3f9e5da4	1.2372327
15	0x3c96828a	0.018372793
16	0x3d7d02ec	0.061770365
17	0x3e563b67	0.20921098
18	0x3dde49a1	0.10853887
19	0x3e024669	0.12722172
20	0x3e4e552e	0.20149681
21	0xbd67f68c	-0.05663161
22	0x3fb14f3e	1.3852308
23	0x4005ddbb	2.0916584
24	0x3d857991	0.065173276
25	0x3e71fc71	0.23631455
26	0x3f280173	0.6562721
27	0xbd2f716e	-0.042832784
28	0x3d3466db	0.044043403
29	0x3ee40427	0.44534418
30	0x3e264c3b	0.16240017
31	0x3dc28ae7	0.0949915
32	0x3fefbda1	1.8729745
33	0x3e0437ba	0.12911883
34	0x3e3588a0	0.177279
35	0x3f6de646	0.92929494
36	0x815e71e4	-4.0856673e-38
37	0x805e3818	-8.652659e-39
38	0x0152041e	3.8573862e-38
39	0x017a9ff8	4.603252e-38
40	0x01117f7e	2.6723765e-38
41	0x00dc240c	2.021674e-38
42	0x0185a106	4.908754e-38
43	0x80252220	-3.410155e-39
44	0x01881a09	4.999587e-38
45	0x3e23d8de	0.16000697
46	0x3ef8a758	0.48565173
47	0x3e76a4c8	0.24086297
48	0xbf5b1c82	-0.85590374
49	0xbea31f1a	-0.31859666
50	0xbf86b1dc	-1.0523028
51	0x3c9e5663	0.019328302
52	0x3ea6961b	0.32536396
53	0x3eed9a68	0.46406865
54	0x3eea0d7c	0.45713413
55	0x3d495a4d	0.049158383
56	0xbf0c9fea	-0.5493151
57	0x3d004019	0.03131113
58	0x40038e79	2.0555708
59	0x3fcb966a	1.5905278
60	0x3ed9abcd	0.42513886
61	0xbe8e7593	-0.27824077
62	0xbf5f7ad5	-0.872968
63	0x3e28aa06	0.16471109
64	0x3c98a5ad	0.018633688
65	0xbf341020	-0.70337105
66	0x3e965503	0.29361734
67	0xc00317d1	-2.0483286
68	0x3fb8ab67	1.4427308
69	0x3e5851e6	0.21124992
70	0x3dc14909	0.094377585
71	0xbf2e3311	-0.6804667
72	0x3e068084	0.13134962
73	0xbe1d35c2	-0.15352538
74	0xbf6079d9	-0.87685925
75	0xbe4090f3	-0.18805294
76	0x3eac9b62	0.33712298
77	0x3fcc7486	1.597306
78	0x3ee75bfb	0.45187363
79	0xbdc9ace0	-0.098474264
80	0xbf53449e	-0.82526577
81	0x3e5f00aa	0.21777597
82	0x3db497ce	0.08818017
83	0xbf247971	-0.64247805
84	0xbd8b487b	-0.06800934
85	0xc03c80b5	-2.9453557
86	0x3fd579f3	1.6677841
87	0x3eb44247	0.35206816
88	0xbd9274e2	-0.071512
89	0xbf0db42d	-0.5535305
90	0x002a587a	3.88883e-39
91	0x809198e0	-1.3370988e-38
92	0x8130e3c0	-3.2489497e-38
93	0x801d04c3	-2.664938e-39
94	0x012ae6be	3.1389618e-38
95	0x01b7d01c	6.7522205e-38
96	0x010c126e	2.5727162e-38
97	0x01473e56	3.659525e-38
98	0x80005496	-3.0344e-41
99	0x3e8bd3f9	0.2731016
100	0x3e46f01b	0.1942753
101	0xbdf7d093	-0.12100329
102	0x3e525e4f	0.20543788
103	0x3ef1abec	0.47201478
104	0xbfdd8096	-1.7304866
105	0xbd3d8cf0	-0.046276987
106	0xbd4bb80c	-0.049736068
107	0xbe9ffd44	-0.31247914
108	0xbcd80373	-0.026368832
109	0x3e97422a	0.29542667
110	0x3d34fc62	0.044186004
111	0x3e68c66e	0.22731945
112	0xbfe3f260	-1.7808342
113	0xbf61454a	-0.8799635
114	0xbe08dfc0	-0.13366604
115	0xbe314821	-0.17312671
116	0xbf5415ad	-0.82845575
117	0x3ef6dd6d	0.4821581
118	0xbeab71d9	-0.33485296
119	0xbf1228ae	-0.5709332
120	0xbebc6a96	-0.3680007
121	0x3faa1d03	1.3290104
122	0xbf59440f	-0.84869474
123	0x3f20dedc	0.62840056
124	0xbf958622	-1.1681559
125	0xbfa3ee24	-1.280705
126	0x3ea07765	0.3134109
127	0x3cb2423f	0.021760104
128	0xbf04a17e	-0.5180892
129	0xbecfec31	-0.40609887
130	0xbfe98c00	-1.824585
131	0xbf589a84	-0.8461077
132	0x3e8bf7a8	0.27337384
133	0xbf48ecfb	-0.78486603
134	0xbf87c7a2	-1.0607798
135	0x3dbb39f2	0.091419116
136	0x3c545d45	0.01296169
137	0xbd34cf85	-0.04414322
138	0xbd777b94	-0.060420588
139	0x403d86e1	2.9613574
140	0xbf4d23de	-0.80132854
141	0x3e13d6c9	0.14437403
142	0xbf1b4ac2	-0.60660946
143	0xbf250350	-0.6445818
144	0x01148e1a	2.728526e-38
145	0x81898ad4	-5.052506e-38
146	0x018cfcbc	5.1790534e-38
147	0x016a446e	4.3028108e-38
148	0x0129428f	3.108815e-38
149	0x01b409ca	6.6135604e-38
150	0x01abc215	6.3093973e-38
151	0x81855f3b	-4.8993133e-38
152	0x01926901	5.3782603e-38
153	0xbe7056fc	-0.23470682
154	0x3e9ca56d	0.3059496
155	0xbee30c14	-0.44345152
156	0x403a3a66	2.9098144
157	0x3ee0171e	0.43767637
158	0x3e04565d	0.1292357
159	0x3e6c9e83	0.23107342
160	0xbc8f04ed	-0.017458403
161	0xbf62052a	-0.8828913
162	0xbe8050f5	-0.25061765
163	0xbe386f7a	-0.18011275
164	0x3df08c5c	0.117455214
165	0x3edf0a9c	0.43562782
166	0x4003d7d3	2.0600479
167	0x3baf90ea	0.0053578513
168	0x3cbac3b8	0.022798404
169	0xbf4018b8	-0.7503772
170	0xbf5fe45a	-0.8745781
171	0x3cd4969e	0.025950726
172	0xbe921dce	-0.28538364
173	0xbe873928	-0.26410794
174	0xbeaaae54	-0.33336127
175	0x40109551	2.2591136
176	0x3d210d8a	0.039319552
177	0x3e888b05	0.26668563
178	0xbf3f245d	-0.7466486
179	0xbf0e0ade	-0.5548533
180	0xbe9ce4c3	-0.3064328
181	0x3e2b85bc	0.16750234
182	0x3d52b04f	0.051437672
183	0x3e1eb957	0.15500389
184	0xbfb15943	-1.3855366
185	0xbe8c7328	-0.27431607
186	0x3e34664d	0.1761715
187	0xbedcd212	-0.4312902
188	0xbe5e425d	-0.21705003
189	0xbe86dd1b	-0.26340565
190	0xbde632d9	-0.11240167
191	0x3c9ea63b	0.019366374
192	0x3e3a88bd	0.18216224
193	0xbfecb7c3	-1.849358
194	0xbeb27dae	-0.3486151
195	0x3e0b176e	0.13583156
196	0xbf044707	-0.5167088
197	0xbe85d29e	-0.2613725
198	0x81b771a8	-6.738667e-38
199	0x01a3d06e	6.0175825e-38
200	0x811eacf6	-2.914411e-38
201	0x013518a6	3.3262134e-38
202	0x0142e89c	3.5799062e-38
203	0x0023aac0	3.275496e-39
204	0x8071d12f	-1.0452452e-38
205	0x00c01ccc	1.7642746e-38
206	0x81af1eb2	-6.4328893e-38
207	0x3e9c40d8	0.30518222
208	0x3e967592	0.29386574
209	0x3def730a	0.11691864
210	0x3e6cafba	0.2311391
211	0xbede9301	-0.4347153
212	0x3e84ce82	0.25938803
213	0xbd660d4a	-0.056165017
214	0xbd86b32c	-0.06577143
215	0xbec4e59a	-0.38456422
216	0x3ed7b770	0.4213214
217	0xbc9dedcb	-0.019278428
218	0xbefd576a	-0.49480754
219	0x3ea11454	0.31460822
220	0xc01cea54	-2.4518023
221	0xbfbb68f8	-1.4641409
222	0x3f05a11f	0.52198976
223	0x3d23dfd0	0.040008366
224	0xbf706ce8	-0.9391618
225	0x3e2a2a91	0.166178
226	0x3e0d55ca	0.13802257
227	0xbf15aa60	-0.58463097
228	0x3e1a0702	0.15041736
229	0xc026d3db	-2.6066806
230	0xbf9e09f6	-1.234679
231	0x3e1bcd8f	0.15215133
232	0x3ee869e0	0.45393276
233	0xbeefe171	-0.46851686
234	0x3e12cec4	0.14336687
235	0xbec77984	-0.38959897
236	0xbf8826c4	-1.063683
237	0xbe51c201	-0.20484163
238	0x3fc8e25e	1.5694082
239	0xbf883ae2	-1.064297
240	0x3df8a101	0.12140084
241	0xbd9b15a4	-0.07572487
242	0xbf3de2e3	-0.74174327
243	0x3e62cbbc	0.22148031
244	0x3e0e464a	0.13894
245	0xbe8303de	-0.25588888
246	0xbe3e7e43	-0.18602853
247	0x3fe9920c	1.8247695
248	0xbf430c6e	-0.7619084
249	0x3e2155ed	0.15755434
250	0x3ead4172	0.33838993
251	0xbf05caf6	-0.5226282
252	0x805f5f72	-8.758611e-39
253	0x0101a31a	2.3810578e-38
254	0x819af28c	-5.6918703e-38
255	0x81b7ea88	-6.756012e-38

conv.bias f4 [200]
0	0xbe82e53f	-0.25565526
1	0xbf06c079	-0.5263744
2	0xbe0742ac	-0.13209027
3	0x3cd5ef3d	0.026115054
4	0xbf2038e0	-0.62586784
5	0xc0054cd7	-2.082815
6	0x3fd6fcbb	1.6795877
7	0x3e54aa19	0.20768012
8	0xbf10e9ac	-0.56606555
9	0xbe9c22b9	-0.3049524
10	0x3e9b0715	0.3027884
11	0x3e381b57	0.1797918
12	0xbf7d0c22	-0.9884664
13	0xbea81b0f	-0.32833144
14	0xbf24d661	-0.64389616
15	0x3e66afda	0.2252802
16	0xbecc14e3	-0.39859685
17	0x3df5cff0	0.120025516
18	0xbeb21e6c	-0.34788835
19	0x3f70281d	0.9381121
20	0xbfc7cf97	-1.5610226
21	0xbfa63d84	-1.2987523
22	0x3fc20edc	1.5160785
23	0x3e4ac715	0.19802506
24	0xbeb46e78	-0.3524053
25	0xbf2fce84	-0.6867449
26	0xbdcbf1d0	-0.099582314
27	0x40329d36	2.7908454
28	0x3ee90f39	0.45519426
29	0xbfbe888b	-1.488542
30	0x403b60d5	2.9277852
31	0xbf7e6938	-0.993793
32	0x3fca8218	1.5820951
33	0xbee361e0	-0.4441061
34	0x3effb27d	0.49940863
35	0x3e91bae7	0.28462908
36	0x3f4eca6c	0.8077762
37	0xbefd3994	-0.4945799
38	0x3e68f54e	0.22749826
39	0xbfa4ee44	-1.2885213
40	0xbe68e5b2	-0.22743872
41	0xbed8506c	-0.42248857
42	0x3fee55bc	1.8619914
43	0xbf9fdb6c	-1.2488837
44	0xbf7c7a60	-0.9862423
45	0xbea40616	-0.32035893
46	0xbdb4e7cf	-0.088332765
47	0x3f357a4a	0.70889723
48	0xbf05764c	-0.5213363
49	0xbcca33ae	-0.024682846
50	0x3e8507fa	0.25982648
51	0xbf8d940c	-1.1060805
52	0xbedec95f	-0.4351301
53	0xbf8195f1	-1.0123883
54	0x3f9de7db	1.2336382
55	0xbe8d377d	-0.27581397
56	0x3f299a08	0.6625066
57	0x3ddab38d	0.10678778
58	0xbed9e872	-0.42560154
59	0xbfd91f5a	-1.6962693
60	0xbf43802a	-0.7636744
61	0xbf3a9b1b	-0.7289292
62	0x3f90c510	1.1310139
63	0xbf2d1d32	-0.67622674
64	0xbe8da595	-0.27665392
65	0xbfc84748	-1.5646753
66	0x3ec93624	0.3929912
67	0xbfd0f91a	-1.632602
68	0xbf7d8cb2	-0.9904281
69	0xbf931ef8	-1.1493826
70	0x3f8b4262	1.0879633
71	0xbf50fb50	-0.8163347
72	0xbdd405af	-0.103526466
73	0x3f7cb202	0.9870912
74	0xbfd394be	-1.6529768
75	0xbfe73c04	-1.806519
76	0xbf9020fc	-1.1260066
77	0xbdd2efb0	-0.10299623
78	0x3f958df6	1.1683948
79	0xc025c390	-2.5900612
80	0x3dd9c262	0.10632779
81	0x3f751ea1	0.9574986
82	0x3f8082a3	1.0039867
83	0x3e8f20cd	0.27954713
84	0x3f8cc42b	1.0997366
85	0x3f8089f4	1.00421
86	0xbf4d759a	-0.8025757
87	0x3f816e56	1.0111797
88	0xbf4d4f28	-0.8019891
89	0x3f0b73da	0.5447365
90	0xbfafbe1e	-1.3729894
91	0x3f1735cf	0.5906648
92	0x3dfdc574	0.12391177
93	0x3dcf5b4e	0.10124837
94	0xbfba1343	-1.4537128
95	0x3fc7a840	1.5598221
96	0xbd8d8708	-0.06910521
97	0xbf74456e	-0.9541844
98	0x3e926c63	0.28598318
99	0xbe56503c	-0.20929044
100	0xbf5a1db9	-0.85201603
101	0x3f60c207	0.8779606
102	0x3f9dc521	1.2325784
103	0xbed2bfa4	-0.41161835
104	0xbeb90296	-0.36134785
105	0xbf966222	-1.1748698
106	0x3ea8d52c	0.32975137
107	0xbd8b65b7	-0.0680651
108	0xbf9167a4	-1.1359754
109	0xbe10cc94	-0.1414054
110	0xc014486f	-2.316921
111	0xbea2ba90	-0.3178296
112	0x3ed21178	0.41028953
113	0x3e80a98b	0.2512935
114	0xbee109eb	-0.4395288
115	0xbd81aaa8	-0.06331378
116	0xbf8f9c0c	-1.1219497
117	0x3f330cc5	0.6994136
118	0xbcabdd82	-0.020979647
119	0x3e9680f9	0.29395273
120	0x3f83e7af	1.0305079
121	0xbec607bb	-0.38677773
122	0x3f0c8c25	0.54901344
123	0x3f14407b	0.5791089
124	0x3f60f76c	0.87877536
125	0xbf3f0b7f	-0.74626917
126	0xbf8506f2	-1.0392745
127	0x3f9912d7	1.1958874
128	0xbf85c608	-1.0451059
129	0x4001319d	2.0186532
130	0x3d7d5699	0.061850164
131	0x3f5c3f0d	0.8603371
132	0xbf18a632	-0.59628594
133	0x3f863a7b	1.0486597
134	0xbeee5c34	-0.4655472
135	0xbf7a74f4	-0.97834706
136	0xbf131ad0	-0.5746279
137	0xbfde2c0d	-1.7357193
138	0xbef06e04	-0.46958935
139	0x3d85a9fa	0.06526561
140	0x3f35a2b6	0.709514
141	0x3ecf55c6	0.40495127
142	0xbf104b2a	-0.5636469
143	0x3f7049b6	0.93862474
144	0xbd32e36f	-0.04367393
145	0x3e1eb75d	0.15499635
146	0x3ebf0bbe	0.37313646
147	0xbdded639	-0.108807035
148	0xbf397d6c	-0.72457004
149	0xbd2bae24	-0.04191412
150	0x3b969a57	0.0045960355
151	0x3dd429cd	0.10359535
152	0x3f67d15f	0.9055385
153	0x3ed7732d	0.4208006
154	0xbe07a4d3	-0.13246469
155	0xbf2d21b8	-0.67629576
156	0xbd9dcf23	-0.07705524
157	0xbf017c48	-0.50580263
158	0x3f0d0cf2	0.5509788
159	0xbfc37bfa	-1.527221
160	0xbe2d320b	-0.16913621
161	0xbdf2bd56	-0.11852519
162	0xbe892d51	-0.26792386
163	0xbe2f37c2	-0.17111114
164	0x3f97138a	1.1802838
165	0xc0143172	-2.315518
166	0xbf1e92aa	-0.6194254
167	0xbf241bed	-0.6410511
168	0x3eca5628	0.39518857
169	0x3d5badfe	0.05363273
170	0x3f542265	0.8286498
171	0x3f627608	0.8846135
172	0x3e34a5e9	0.17641415
173	0xbede1722	-0.43377024
174	0xbf845254	-1.0337625
175	0xbf8cd5b9	-1.1002723
176	0x3e96a64a	0.29423743
177	0x3f436a1b	0.7633378
178	0x3fbd3d98	1.4784422
179	0x3ea0075f	0.31255624
180	0xbd183fb6	-0.037170134
181	0xbe606194	-0.21912223
182	0x3f3024a6	0.6880592
183	0x3d3eb291	0.046557013
184	0x3ee9c9ed	0.4566187
185	0xbf23c324	-0.63969636
186	0x3e646dae	0.22307464
187	0xbea9aaed	-0.3313822
188	0x3f26fa2b	0.65225476
189	0x401c28f6	2.44
190	0xbf03fc18	-0.5155654
191	0x3febdc67	1.8426636
192	0x3fabf468	1.3433962
193	0xbdc89db5	-0.09795705
194	0xbf836a19	-1.0266753
195	0xbf0aa171	-0.5415259
196	0x4047cd0a	3.1218896
197	0xbcab313a	-0.020897496
198	0x3e8f7acf	0.28023383
199	0xbe7920e9	-0.2432896

conv2.weight f4 [200, 800, 1, 1]
0	0xbf6b258a	-0.91854155
1	0xbf0de435	-0.5542634
2	0x3f944f1f	1.1586646
3	0x3d419ff2	0.047271676
4	0xbe97f779	-0.29680994
5	0x3f6e182c	0.93005633
6	0x3edb246b	0.42801222
7	0x3d802239	0.062565275
8	0x3e408ce3	0.18803744
9	0xbf2574b2	-0.6463119
10	0xbf88f87e	-1.0700834
11	0x3f309cb2	0.689891
12	0x3e4f221c	0.20227855
13	0x3e6f5fb0	0.23376346
14	0xbe86ae27	-0.26304743
15	0x3cdd46a7	0.027011229
16	0x3ecfc33a	0.40578634
17	0x3ffd959b	1.9811281
18	0x3f8fa008	1.1220713
19	0x3ed78b51	0.42098477
20	0xbe7f6f0d	-0.24944706
21	0xbf4f3ea1	-0.8095494
22	0xbe19cbb9	-0.1501912
23	0x3fca90cf	1.5825442
24	0x3dda3bb3	0.10655918
25	0xbd92e570	-0.07172668
26	0xbf5192c6	-0.81864583
27	0xbe30af9b	-0.17254488
28	0xbe5f6ad4	-0.21818095
29	0xbeedbdcf	-0.46433875
30	0xbea12079	-0.31470087
31	0xbf7cd00b	-0.9875495
32	0xbef6fe28	-0.4824078
33	0x3ccafabb	0.02477776
34	0x3f633d47	0.88765377
35	0x3f4f2b25	0.8092521
36	0x3f3e246a	0.74274313
37	0x3e6acc30	0.22929454
38	0xbf3c01f4	-0.7344048
39	0xbf920e54	-1.1410623
40	0x3ebea80b	0.37237582
41	0xbe4e42d6	-0.20142683
42	0xbed5c5ea	-0.4175256
43	0x3f2762dd	0.6538523
44	0x3dafa196	0.08575742
45	0xbf1b9c5c	-0.6078546
46	0xbd4e2269	-0.050325785
47	0xbf0c7983	-0.5487291
48	0xbe2d4e74	-0.16924459
49	0xbffe9d1c	-1.9891696
50	0xbd6cb9e9	-0.057794485
51	0xbe7cbd91	-0.24681689
52	0x3f357552	0.7088214
53	0x3fcaa32e	1.5831048
54	0xbfa5765b	-1.2926744
55	0xbf6b8662	-0.92001927
56	0x3f90aceb	1.130277
57	0xbe0141dc	-0.1262278
58	0x3ebcce44	0.36876118
59	0x3f27b4cd	0.65510255
60	0x3f34672d	0.70469934
61	0xbe07681e	-0.13223311
62	0xc028f532	-2.6399655
63	0x3ecaa708	0.3958056
64	0xbfdd8ccd	-1.7308594
65	0xbf5c5f83	-0.8608324
66	0xbe9f42cd	-0.31105652
67	0xbf09abe3	-0.53777903
68	0x40198446	2.3986983
69	0xbf8ac26a	-1.084058
70	0xbea441fd	-0.32081595
71	0xbdee2a80	-0.116292
72	0x3f3b2b18	0.7311263
73	0xbe8b24f4	-0.2717663
74	0x3e3a2e81	0.18181802
75	0x3e7ce44f	0.24696468
76	0xbf213ef9	-0.62986714
77	0x3f4b0781	0.79308325
78	0xbe04956a	-0.12947622
79	0xbcac8cbe	-0.021063205
80	0x3e2f4778	0.17117107
81	0x3f888d6c	1.0668159
82	0xc0152f5c	-2.3310156
83	0x3e286bb3	0.16447334
84	0x3d0ca66e	0.034338407
85	0x3f7560f1	0.95851046
86	0xbc8f1eab	-0.017470678
87	0xc015aced	-2.3386796
88	0x3fc3d631	1.5299741
89	0x3f8c04a5	1.0938917
90	0x3e231db4	0.159293
91	0x3e4b591d	0.19858213
92	0xbeba94b0	-0.36441565
93	0xbe56164a	-0.2090694
94	0x3f944ff6	1.1586902
95	0x3f2efaf3	0.6835167
96	0x3f330e22	0.6994344
97	0xbfc255f3	-1.518248
98	0x3f13ff76	0.5781168
99	0xbfc1a598	-1.512866
100	0xbf8c1ea5	-1.0946852
101	0x3ecb1f06	0.39672107
102	0xbf900d30	-1.1254025
103	0xbf9a89d1	-1.2073308
104	0xbd8a1586	-0.067423865
105	0x3e88cfa3	0.26720914
106	0x3f2580ed	0.6464985
107	0x3f887287	1.0659951
108	0xbbcf875c	-0.0063332748
109	0x3ee53ce9	0.44773033
110	0x3f30dbc9	0.69085366
111	0x3f28f4c9	0.6599851
112	0xbf0b5ceb	-0.54438657
113	0xbf33a6f6	-0.7017664
114	0x3df52f6a	0.11971934
115	0xbeccd8dd	-0.40009204
116	0xbdcd5699	-0.10026283
117	0xbeae4847	-0.34039518
118	0xbf64ed18	-0.89424276
119	0x3da05f44	0.078306705
120	0xbe572885	-0.2101155
121	0xbfb6a8b9	-1.427024
122	0x3e51207b	0.20422547
123	0xbf80c691	-1.0060598
124	0x3f9f0fef	1.2426738
125	0xbf9da43a	-1.2315743
126	0x3e588eda	0.21148244
127	0xbe568e4d	-0.20952721
128	0x3fbcf01a	1.4760773
129	0xbf5581eb	-0.83401364
130	0xbfa2a8ed	-1.2707802
131	0xbf0f2cbc	-0.55927634
132	0xbdd483b0	-0.1037668
133	0xbea710cb	-0.3263
134	0xbf0671ae	-0.5251721
135	0xbf25a86a	-0.64710104
136	0x3e863478	0.26211905
137	0xbe8f9a8d	-0.280476
138	0x3ff17892	1.886492
139	0xbf4125c8	-0.75448275
140	0xbe6dd6db	-0.23226492
141	0x3ddf634a	0.1090761
142	0x3ed30910	0.41217852
143	0x3f48d103	0.78443927
144	0x3f11c870	0.5694647
145	0x3ec3af55	0.38219705
146	0xbf4c7564	-0.79866624
147	0x3f643743	0.8914682
148	0x3fae38cd	1.3611084
149	0x3d7f85b8	0.062383384
150	0xbf93574e	-1.1511018
151	0xbf18888a	-0.5958334
152	0xbe9dcccf	-0.3082032
153	0x3f4303fc	0.76177955
154	0x3ed8c446	0.42337245
155	0x3fb7b2ab	1.43514
156	0x3e699a5a	0.22812787
157	0x3d932a8b	0.07185849
158	0xbf043c6d	-0.516547
159	0x3f926394	1.1436639
160	0x3f11790c	0.5682533
161	0xbf8b0325	-1.0860335
162	0xbe42744a	-0.18989673
163	0x3f230f88	0.63695574
164	0x3f957262	1.1675532
165	0x3f75efe6	0.9606918
166	0x3fb272ac	1.3941245
167	0x3f5ca418	0.8618789
168	0xbf84579d	-1.0339237
169	0xbeeaec0f	-0.45883223
170	0xbf37e2ca	-0.7183043
171	0x3ffe49d9	1.9866287
172	0xbb684274	-0.003544
173	0x4006d7cd	2.1069214
174	0x3fa1fc6a	1.2655156
175	0xbf5e629a	-0.86869204
176	0xbef98a06	-0.48738116
177	0xbeea9530	-0.45816946
178	0xbf5ef3f9	-0.8709102
179	0xbfa664b5	-1.2999483
180	0x3f5f18b7	0.87147087
181	0x3dd7a67b	0.105298005
182	0x3f169788	0.5882497
183	0xbfc987ee	-1.5744607
184	0x3e9f330b	0.3109363
185	0x3fdc54f8	1.721343
186	0xbf480ebe	-0.78147495
187	0x3f4515ce	0.76986396
188	0xbfaa8fa6	-1.3325088
189	0x3cd98840	0.026554227
190	0x3cd9d8e2	0.026592676
191	0xbe19af56	-0.15008292
192	0x3f4618da	0.7738167
193	0xbf01e9d4	-0.5074742
194	0xbc4f6e58	-0.012660585
195	0x3ebb7de3	0.3661948
196	0xbf1dd5ed	-0.6165455
197	0xbfe70919	-1.8049651
198	0x3f5af765	0.85533744
199	0xbf74dfc1	-0.9565392
200	0x3d55e9b4	0.05222483
201	0xbd1b0ae8	-0.037852198
202	0xbe8bb803	-0.27288827
203	0xbe34b9cd	-0.17649002
204	0x3e9b430b	0.30324587
205	0x3e52951d	0.20564695
206	0xbe8700ee	-0.26367897
207	0xbd5ff79b	-0.054679494
208	0x3dd7e9f1	0.10542668
209	0xbe3c8fbc	-0.18414205
210	0xbea585e5	-0.32328716
211	0x3e5e211c	0.21692318
212	0x3db1e5f6	0.0868644
213	0xbcd2fcc6	-0.025755297
214	0x3df96e8a	0.12179287
215	0x3b4d1ba6	0.0031296997
216	0x3e2339e9	0.1594006
217	0x3edba581	0.42899707
218	0x3e703720	0.23458529
219	0x3e67a1f9	0.22620381
220	0xbdf0a46a	-0.117501095
221	0x3e1ec454	0.1550458
222	0xbc511862	-0.012762161
223	0xbc084de9	-0.0083193565
224	0xbe73f781	-0.23824884
225	0x3ebba883	0.36652002
226	0xbf203f16	-0.6259626
227	0xbd393116	-0.045212828
228	0x3e96dab2	0.29463726
229	0x3ea5a1ff	0.32350156
230	0xbdb2254b	-0.08698519
231	0xbe0b4e70	-0.1360414
232	0x3e37a6ae	0.17934677
233	0x3dd53fac	0.10412535
234	0x39b0ade5	0.00033698897
235	0x3d9617d8	0.073287666
236	0x3e6e10e4	0.23248631
237	0xbcb005b0	-0.021487087
238	0x3cac82d3	0.021058476
239	0xbe9c60e8	-0.30542684
240	0xbd340c36	-0.043956958
241	0xbe905be5	-0.2819511
242	0xbe312798	-0.1730026
243	0x3e9a53ac	0.30141962
244	0xbde7aba7	-0.11312037
245	0x3dac773b	0.08421179
246	0x3dac17bb	0.08402964
247	0x3d13246c	0.035923406
248	0x3e3e5ddd	0.18590494
249	0xbe637189	-0.22211279
250	0x3e57bdba	0.21068469
251	0xbe81b9d4	-0.25337088
252	0xbe70b75c	-0.23507446
253	0x3e8a4493	0.27005443
254	0x3ed59495	0.41714922
255	0xbd2b93f4	-0.041889146

conv2.bias f4 [200]
0	0xbf3e225f	-0.74271196
1	0xbe615431	-0.22004773
2	0xbee7cc72	-0.45273167
3	0xbf3d6007	-0.7397465
4	0xbf22a2b5	-0.6352952
5	0xbd9efefc	-0.07763478
6	0xbf76efa2	-0.964594
7	0xbe845355	-0.25844827
8	0xbf00dcdf	-0.5033702
9	0xbf397098	-0.7243743
10	0xbe266a2d	-0.1625144
11	0xbe1a591b	-0.15073054
12	0xbed77e04	-0.4208833
13	0x3e88bdd1	0.26707318
14	0xbf5a7c97	-0.8534636
15	0x3ddc8799	0.10768051
16	0xbd78c36d	-0.060733248
17	0x3d544aa4	0.051828995
18	0xbec6dbb3	-0.38839492
19	0xbd47c168	-0.04876843
20	0xbe8092d2	-0.25112015
21	0xbf274ea0	-0.6535435
22	0x00809102	1.1806963e-38
23	0xbe423290	-0.189646
24	0xbf6e27bc	-0.9302938
25	0x3e93b501	0.28849033
26	0xbf00b4a6	-0.5027565
27	0x3d98b7e9	0.07456953
28	0x3d7b5e15	0.06136902
29	0xbec9a8bd	-0.3938655
30	0xbef5195e	-0.47870916
31	0xbe102de4	-0.14080006
32	0xbe5e1087	-0.21685992
33	0xbed3efa3	-0.41393766
34	0xbe74ad3e	-0.23894212
35	0xbe5ae414	-0.21376067
36	0xbe978e87	-0.29600927
37	0xbd1494da	-0.03627477
38	0xbe18c088	-0.14917195
39	0x3d6e5f02	0.058196075
40	0xbe9f56ed	-0.31121007
41	0xbed22cba	-0.4104975
42	0xbd2d14a6	-0.04225602
43	0xbe80729e	-0.25087446
44	0xbf386162	-0.72023594
45	0xbec47744	-0.38372242
46	0xbdbf7909	-0.093492575
47	0xbdfc2712	-0.123121396
48	0x3e834d44	0.25644886
49	0xbecac0c2	-0.39600188
50	0x3ea09a9c	0.31367958
51	0xbd69a434	-0.057041362
52	0xbed5fe77	-0.41795704
53	0xbe0e7be6	-0.13914451
54	0xbe9deb39	-0.30843523
55	0xbf440362	-0.7656766
56	0xbf5cdfed	-0.86279184
57	0x3e40d76c	0.18832177
58	0xbeb62f69	-0.35583046
59	0xbed8bd33	-0.42331848
60	0x3e4d28f7	0.20035158
61	0x3c3d5e77	0.011558167
62	0xbf4a1ef8	-0.78953505
63	0xbf648c81	-0.8927689
64	0xbe305604	-0.17220312
65	0xbf0ec44b	-0.5576827
66	0x3e149055	0.14508183
67	0x3e0c117c	0.13678545
68	0xbf62b5ad	-0.88558465
69	0xbead7f01	-0.3388596
70	0x3d6a73e1	0.057239417
71	0xbec1b43d	-0.37832823
72	0xbf368fef	-0.71313375
73	0xbf46637f	-0.7749557
74	0x3db8c6e5	0.09022311
75	0xbb88c56f	-0.0041739265
76	0xbeae1564	-0.34000695
77	0xbed53f79	-0.41649988
78	0xbee1c2d9	-0.4409397
79	0xbeee943f	-0.46597478
80	0xbf74216b	-0.9536349
81	0xbf668ec8	-0.90061617
82	0xbf1bd053	-0.6086475
83	0xbe8e6009	-0.27807644
84	0xbf122f59	-0.57103497
85	0xbef2ffbb	-0.47460732
86	0xbe7dc8e1	-0.2478366
87	0xbe3290b4	-0.17438012
88	0xbf50f5cd	-0.8162506
89	0x3afe016e	0.0019379088
90	0xbedd5c3c	-0.43234432
91	0xbf20d0c2	-0.6281854
92	0xbf320a3d	-0.6954687
93	0xbf2ccad6	-0.67497003
94	0xbf1c5fb9	-0.6108356
95	0xbd69efcc	-0.057113454
96	0xbebc9251	-0.3683038
97	0xbf41a979	-0.7564922
98	0x3ca250dd	0.01981395
99	0xbe557a1f	-0.20847367
100	0xbe4cb00f	-0.19989036
101	0xbe81e482	-0.2536965
102	0xbf4f763d	-0.8103979
103	0xbe65aafd	-0.22428508
104	0xbed294df	-0.41129205
105	0x3d3cfc49	0.046139035
106	0xbef19f3e	-0.47191805
107	0x3d378a11	0.044809405
108	0xbd93398c	-0.071887106
109	0xbecf6dcb	-0.40513453
110	0xbe82ed82	-0.2557183
111	0xbecd17e6	-0.40057296
112	0x3bcfea48	0.006345067
113	0xbf184038	-0.5947299
114	0x3eaca675	0.33720747
115	0xbf4ab50f	-0.79182523
116	0xbf4e4dc3	-0.80587405
117	0xbebd91b0	-0.37025213
118	0xbf032dbf	-0.5124168
119	0xbf485767	-0.78258365
120	0xbeedd872	-0.46454197
121	0xbf31daed	-0.6947468
122	0x3d783ed4	0.060606793
123	0xbd8d1d68	-0.068903744
124	0xbec3f975	-0.38276258
125	0xbe7e0e63	-0.24810176
126	0xbee82797	-0.45342705
127	0x3db6ffbe	0.08935498
128	0x3d487fb2	0.048949905
129	0xbf0faaf8	-0.5612025
130	0xbddbe2fd	-0.10736654
131	0xbe2adb84	-0.16685301
132	0xbd25cba3	-0.040477406
133	0x3dd0a080	0.10186863
134	0xbd939f42	-0.072081104
135	0xbe9a5a6f	-0.3014712
136	0xbf4c457a	-0.7979351
137	0x3d4bcbc6	0.04975488
138	0xbe0bf9f1	-0.13669564
139	0xbe242565	-0.1602989
140	0x3e0e743d	0.13911529
141	0xbeaa0d39	-0.33213213
142	0xbf16c871	-0.588996
143	0xbeb434ef	-0.35196635
144	0xbe2526f1	-0.16128136
145	0xbf324b49	-0.69646126
146	0xbf1540c2	-0.5830194
147	0xbdb3dab1	-0.087819465
148	0xbf7070b5	-0.9392198
149	0xbe9436fa	-0.28948194
150	0xbe67f687	-0.22652636
151	0x3e745f1b	0.23864405
152	0x3db05278	0.0860948
153	0xbeac974a	-0.33709174
154	0xbeb947d4	-0.36187613
155	0xbf4b825d	-0.79495794
156	0xbeca9c48	-0.39572358
157	0xbed72217	-0.42018196
158	0xbeb2f38d	-0.3495144
159	0x3dc7ac5a	0.0974967
160	0x3df0c668	0.11756593
161	0xbe85ae94	-0.26109755
162	0xbf8aee8e	-1.0854051
163	0xbe5740bf	-0.21020792
164	0xbed224c5	-0.41043678
165	0xbf1b1db9	-0.6059223
166	0xbf18039d	-0.59380513
167	0xbec2a80a	-0.3801883
168	0x3e24a136	0.16077122
169	0xbe910784	-0.28326046
170	0x3ba7ed3c	0.005124716
171	0xbf204d9d	-0.6261843
172	0xbf30fc05	-0.6913455
173	0xbf018d57	-0.5060629
174	0xbef1e2a5	-0.4724323
175	0xbe1402c3	-0.14454179
176	0xbee2f7d4	-0.44329703
177	0x3e224192	0.15845326
178	0xbece61bb	-0.40308937
179	0xbed521e9	-0.41627434
180	0xbf0737c9	-0.52819496
181	0xbe4d9cb7	-0.20079313
182	0xbe41890c	-0.18899935
183	0xbf21fe06	-0.63278234
184	0xbeb5ffd6	-0.3554675
185	0xbdd54610	-0.10413754
186	0xbf223067	-0.63355106
187	0xbe9823c7	-0.29714796
188	0xbec06396	-0.37575978
189	0xbe809c93	-0.25119457
190	0x3e966572	0.29374272
191	0xbf2b89f1	-0.67007357
192	0xbe00acee	-0.12565967
193	0xbd91966e	-0.0710877
194	0x3d5d33aa	0.05400435
195	0x3dadca2e	0.08485828
196	0x3c096ef5	0.008388271
197	0xbef4c565	-0.4780685
198	0xbe894185	-0.268078
199	0xbf3d1b98	-0.7387023

conv3.weight f4 [6, 200, 1, 1]
0	0xbf242cae	-0.64130676
1	0x3c0f3a97	0.008741996
2	0xbeaa70b4	-0.3328911
3	0xbea81faf	-0.32836673
4	0xbef45f8e	-0.47729152
5	0x3e34b13c	0.17645735
6	0xbecfbd87	-0.40574285
7	0xbd8a1bca	-0.067435816
8	0xbdacd713	-0.0843946
9	0xbb0a10a6	-0.0021067052
10	0x3d6e7704	0.05821897
11	0x3c2b9483	0.01047242
12	0xbe8a7b2f	-0.27047107
13	0x3d1cf819	0.038322542
14	0x3db5744f	0.08860075
15	0xbf068afa	-0.5255581
16	0x3c7f86c8	0.015596099
17	0xbf004592	-0.50106156
18	0xbe31344d	-0.17305107
19	0xbefe1f01	-0.4963303
20	0x3d65736c	0.056018278
21	0xbd935f80	-0.071959496
22	0x008eb359	1.3104978e-38
23	0xbeae4d5f	-0.34043404
24	0x3da9638e	0.08270942
25	0xbf085f18	-0.532701
26	0xbc77bae3	-0.015120241
27	0xbf38bc92	-0.72162735
28	0x3ca8c4c4	0.020601638
29	0xbe95e319	-0.29274824
30	0xbe54bfca	-0.20776287
31	0x3d482641	0.048864607
32	0xbe201665	-0.15633543
33	0xbeff10ed	-0.498176
34	0x3e6152d3	0.22004251
35	0x3d3a69ca	0.045511045
36	0xbe8db5b9	-0.27677706
37	0xbe1e155b	-0.15437834
38	0x3d653e53	0.05596764
39	0xbee0c6b3	-0.43901595
40	0x3d27bd75	0.040952165
41	0xbedfc6f4	-0.43706477
42	0x3eea3570	0.45743895
43	0x3d1d8feb	0.03846733
44	0xbe3cf080	-0.18451118
45	0xbec80260	-0.39064312
46	0xbe7b15dc	-0.24520057
47	0xbe9ceed8	-0.30650973
48	0x3d2f8503	0.04285146
49	0xbdd94c15	-0.106102146
50	0x3c538725	0.012910639
51	0x3beb5bff	0.0071825976
52	0xbe46d74d	-0.19418068
53	0xbe5a3e3d	-0.21312805
54	0x3dc79eda	0.097470954
55	0x3b6d176c	0.003617729
56	0xbedbda5d	-0.42940035
57	0x3d8bf27b	0.06833359
58	0xbec3066a	-0.3809083
59	0x3d05fc74	0.03271146
60	0xbf0f65c3	-0.5601465
61	0xbf15bb4c	-0.5848892
62	0xbed055a4	-0.4069034
63	0xbecd1bea	-0.4006036
64	0xbec582df	-0.3857641
65	0xbeb9c237	-0.36280987
66	0xbec8147f	-0.39078137
67	0xbd4f6eae	-0.05064266
68	0xbe2eda85	-0.17075546
69	0x3d88b6f4	0.066755205
70	0xbed4ad0e	-0.4153828
71	0xbe591086	-0.2119771
72	0xbee240ab	-0.44189963
73	0x3dc0c60f	0.09412777
74	0xbe869c86	-0.26291293
75	0xbea0ee0e	-0.3143162
76	0x3deaa8d1	0.114579804
77	0x3bc98e80	0.0061510205
78	0xbeeb0249	-0.4590018
79	0x3e51252f	0.2042434
80	0xbe91bd5d	-0.28464785
81	0xbec17bfb	-0.37789902
82	0x3d9de6fb	0.07710072
83	0x3e127718	0.14303243
84	0xbdbab04a	-0.09115656
85	0xbecbf61a	-0.39836198
86	0xbd3a2b33	-0.045451354
87	0x3e01afb7	0.12664686
88	0x3cfa4b45	0.03055347
89	0xbe87536e	-0.2643084
90	0xbf157e44	-0.5839579
91	0xbeee52db	-0.4654759
92	0x3e08a39d	0.13343664
93	0xbec5ed0b	-0.38657412
94	0xbf13cf64	-0.5773833
95	0xbf09c2d4	-0.5381291
96	0x3d9040cf	0.07043611
97	0x3d4240d3	0.047425102
98	0xbf186448	-0.5952802
99	0xbe17a977	-0.1481074
100	0x3e29eebc	0.16594976
101	0x3c0f63fd	0.008751866
102	0xbf255681	-0.6458512
103	0xbf23573f	-0.63805
104	0x3dbabab4	0.09117642
105	0xbcf0b5dd	-0.029383594
106	0xbd8c4ca8	-0.068505585
107	0xbbf5abf1	-0.0074973037
108	0xbdf52a95	-0.119710125
109	0x3e0ad092	0.13556126
110	0x3e8c536a	0.2740739
111	0xbf26232c	-0.6489742
112	0x3dd1ab2f	0.10237729
113	0xbf0999d9	-0.5375038
114	0x3cb5d982	0.022198442
115	0x3e025405	0.12727363
116	0x3df5ee04	0.120082885
117	0xbeae17dd	-0.3400258
118	0xbed43a87	-0.41450903
119	0x3d2d4d1d	0.04230987
120	0xbe93346f	-0.2875094
121	0xbe860497	-0.26175377
122	0xbdadf517	-0.08494013
123	0xbed6d2ea	-0.4195779
124	0x3e737814	0.23776275
125	0x3d021cd9	0.031765793
126	0xbf0bd86a	-0.54627097
127	0xbf06fd26	-0.52730024
128	0x3c902437	0.017595394
129	0xbf0a3a86	-0.5399555
130	0xbf844259	-1.0332748
131	0x3eb523bd	0.3537883
132	0xbe9971ad	-0.2996954
133	0xbf05be53	-0.52243537
134	0xbe6a8f67	-0.22906266
135	0xbe9d49f9	-0.307205
136	0x3e11e8ac	0.14248914
137	0xbdd4cc6d	-0.103905536
138	0xbf0d3b26	-0.5516838
139	0xbe8874e2	-0.26651675
140	0x3c464974	0.0121024735
141	0xbf0167b8	-0.5054889
142	0xbeed31c1	-0.46327022
143	0x3d9cb0f4	0.07650939
144	0x3c5c1f6d	0.013435227
145	0xbeb750ae	-0.3580374
146	0xbe3566e8	-0.17715037
147	0xbf866de3	-1.0502285
148	0xbee9fb4d	-0.4569954
149	0xbebba4d5	-0.36649194
150	0xbc209cc3	-0.009803
151	0xbf055a1e	-0.5209063
152	0x3d23265d	0.039831508
153	0xbd3237fa	-0.043510415
154	0xbcaf6eda	-0.021415163
155	0x3d2de72c	0.04245679
156	0x3cfc72c6	0.030816447
157	0x3d8cafdd	0.06869481
158	0xbe6037bf	-0.21896265
159	0xbf2f39ee	-0.6844777
160	0x3aacc572	0.0013181402
161	0x3d29b8d8	0.041436046
162	0xbf31ae57	-0.69406646
163	0x3cbc7987	0.023007168
164	0xbea9175d	-0.33025637
165	0xbe4029f4	-0.18766004
166	0xbefe8f1b	-0.49718556
167	0x3dbfc53e	0.09363793
168	0xbef4290e	-0.47687572
169	0x3ddfe47c	0.10932252
170	0xbedee986	-0.4353754
171	0x3dfaf0b1	0.122529395
172	0xbef6a988	-0.48176217
173	0xbee81f22	-0.45336252
174	0xbf1a1cab	-0.60199994
175	0x3dbb9545	0.0915933
176	0x3db06ab3	0.08614101
177	0xbf0b93a3	-0.5452215
178	0xbe99c625	-0.30033985
179	0x3db7fe8a	0.08984096
180	0xbef59d24	-0.4797145
181	0x3da6877d	0.08131311
182	0x3d7b7507	0.061390903
183	0x3ce05462	0.027383987
184	0x3d599cb4	0.05312796
185	0xbed621fc	-0.41822803
186	0x3da7c193	0.08191218
187	0x3c7a2c00	0.0152692795
188	0x3d69661d	0.05698215
189	0x3d224e9c	0.03962575
190	0x3cd896d4	0.026439108
191	0xbe28ad33	-0.1647232
192	0xbf064fab	-0.52465314
193	0xbf22e014	-0.63623166
194	0xbf3bad26	-0.7331108
195	0xbf167234	-0.5876801
196	0x3e98a93e	0.29816622
197	0x3cb228f5	0.021748045
198	0xbe2f78b6	-0.17135891
199	0xbe50cc3c	-0.20390409
200	0x3d5a0ff8	0.053237885
201	0xbc736ab3	-0.014856982
202	0xbea0136a	-0.31264812
203	0xbea09690	-0.3136487
204	0xbeeb762f	-0.45988604
205	0x3e7dbeea	0.24779859
206	0x3ccb64d6	0.024828356
207	0xbf58c6be	-0.84678257
208	0xbe1505ba	-0.14552966
209	0xbea5f957	-0.32416794
210	0xbd3abf14	-0.045592383
211	0x3d1163d3	0.03549559
212	0xbe985769	-0.2975419
213	0x3cad2f7c	0.021140806
214	0xbe22187e	-0.15829656
215	0xbe9a2309	-0.30104855
216	0xbf1cd7f7	-0.61267036
217	0x3b04d252	0.0020266962
218	0x3c03df66	0.008048868
219	0x3d4abcd7	0.049496498
220	0x3d50b4b0	0.050953567
221	0xbeb49063	-0.35266408
222	0x351359c6	5.4892405e-07
223	0xbe80109c	-0.25012672
224	0xbea0ebcd	-0.31429902
225	0xbb949ea0	-0.004535511
226	0xbcf80198	-0.030274197
227	0xbf0be570	-0.5464697
228	0x3cde43c8	0.02713193
229	0xbe95711a	-0.29187852
230	0x3e53e4af	0.20692705
231	0xbbc849e8	-0.006112326
232	0x3ec945f9	0.39311197
233	0xbd2369fd	-0.039896
234	0x3c65f764	0.014036033
235	0xbb940441	-0.0045171087
236	0xbe85bed6	-0.2612216
237	0xbe890096	-0.2675826
238	0xba896760	-0.0010483079
239	0xbef83273	-0.4847599
240	0xbde86174	-0.11346713
241	0xbeb07652	-0.3446527
242	0xaf94a4dd	-2.7038186e-10
243	0x3c44823c	0.011993941
244	0xbeee0f52	-0.46496063
245	0xbec9be55	-0.39403024
246	0xbe099492	-0.13435581
247	0xbe9fe2a7	-0.3122761
248	0x3c1a2b03	0.009409669
249	0xbe0c128e	-0.13678953
250	0xbf32f4f3	-0.6990501
251	0x3c91dd83	0.01780582
252	0x3d6c5934	0.05770226
253	0xbea66042	-0.32495314
254	0x3d02c04f	0.03192168
255	0xbe69af34	-0.22820741

conv3.bias f4 [6]
0	0xbea88876	-0.3291661
1	0xbf9bbc91	-1.2166921
2	0xbf3e5762	-0.74352086
3	0xbf0617f4	-0.523803
4	0xc0759c11	-3.8376505
5	0x3fd0771a	1.6286347
